<?xml version="1.0" ?>
<net batch="1" name="ResMobNet_v3 with single SSD head on Datatang" version="2">
	<layers>
		<layer id="0" name="data" precision="FP32" type="Input">
			<output>
				<port id="0">
					<dim>1</dim>
					<dim>3</dim>
					<dim>320</dim>
					<dim>544</dim>
				</port>
			</output>
		</layer>
		<layer id="1" name="Mul_1719/Fused_Mul_/FusedScaleShift_" precision="FP32" type="ScaleShift">
			<input>
				<port id="0">
					<dim>1</dim>
					<dim>3</dim>
					<dim>320</dim>
					<dim>544</dim>
				</port>
			</input>
			<output>
				<port id="3">
					<dim>1</dim>
					<dim>3</dim>
					<dim>320</dim>
					<dim>544</dim>
				</port>
			</output>
			<blobs>
				<weights offset="0" size="12"/>
				<biases offset="12" size="12"/>
			</blobs>
		</layer>
		<layer id="2" name="init_block1/dim_inc/conv" precision="FP32" type="Convolution">
			<data dilation-x="1" dilation-y="1" group="1" kernel-x="3" kernel-y="3" output="32" pad-b="1" pad-r="1" pad-x="1" pad-y="1" stride="1,1,2,2" stride-x="2" stride-y="2"/>
			<input>
				<port id="0">
					<dim>1</dim>
					<dim>3</dim>
					<dim>320</dim>
					<dim>544</dim>
				</port>
			</input>
			<output>
				<port id="3">
					<dim>1</dim>
					<dim>32</dim>
					<dim>160</dim>
					<dim>272</dim>
				</port>
			</output>
			<blobs>
				<weights offset="24" size="3456"/>
				<biases offset="3480" size="128"/>
			</blobs>
		</layer>
		<layer id="3" name="init_block1/dim_inc/fn" precision="FP32" type="ReLU">
			<data negative_slope="0.0"/>
			<input>
				<port id="0">
					<dim>1</dim>
					<dim>32</dim>
					<dim>160</dim>
					<dim>272</dim>
				</port>
			</input>
			<output>
				<port id="1">
					<dim>1</dim>
					<dim>32</dim>
					<dim>160</dim>
					<dim>272</dim>
				</port>
			</output>
		</layer>
		<layer id="4" name="bottleneck1_1/dim_red/conv" precision="FP32" type="Convolution">
			<data dilation-x="1" dilation-y="1" group="1" kernel-x="1" kernel-y="1" output="8" pad-b="0" pad-r="0" pad-x="0" pad-y="0" stride="1,1,1,1" stride-x="1" stride-y="1"/>
			<input>
				<port id="0">
					<dim>1</dim>
					<dim>32</dim>
					<dim>160</dim>
					<dim>272</dim>
				</port>
			</input>
			<output>
				<port id="3">
					<dim>1</dim>
					<dim>8</dim>
					<dim>160</dim>
					<dim>272</dim>
				</port>
			</output>
			<blobs>
				<weights offset="3608" size="1024"/>
				<biases offset="4632" size="32"/>
			</blobs>
		</layer>
		<layer id="5" name="bottleneck1_1/dim_red/fn" precision="FP32" type="ReLU">
			<data negative_slope="0.10000000149011612"/>
			<input>
				<port id="0">
					<dim>1</dim>
					<dim>8</dim>
					<dim>160</dim>
					<dim>272</dim>
				</port>
			</input>
			<output>
				<port id="1">
					<dim>1</dim>
					<dim>8</dim>
					<dim>160</dim>
					<dim>272</dim>
				</port>
			</output>
		</layer>
		<layer id="6" name="bottleneck1_1/inner/dw1/conv" precision="FP32" type="Convolution">
			<data dilation-x="1" dilation-y="1" group="8" kernel-x="3" kernel-y="3" output="8" pad-b="1" pad-r="1" pad-x="1" pad-y="1" stride="1,1,1,1" stride-x="1" stride-y="1"/>
			<input>
				<port id="0">
					<dim>1</dim>
					<dim>8</dim>
					<dim>160</dim>
					<dim>272</dim>
				</port>
			</input>
			<output>
				<port id="3">
					<dim>1</dim>
					<dim>8</dim>
					<dim>160</dim>
					<dim>272</dim>
				</port>
			</output>
			<blobs>
				<weights offset="4664" size="288"/>
				<biases offset="4952" size="32"/>
			</blobs>
		</layer>
		<layer id="7" name="bottleneck1_1/inner/dw1/fn" precision="FP32" type="ReLU">
			<data negative_slope="0.10000000149011612"/>
			<input>
				<port id="0">
					<dim>1</dim>
					<dim>8</dim>
					<dim>160</dim>
					<dim>272</dim>
				</port>
			</input>
			<output>
				<port id="1">
					<dim>1</dim>
					<dim>8</dim>
					<dim>160</dim>
					<dim>272</dim>
				</port>
			</output>
		</layer>
		<layer id="8" name="bottleneck1_1/dim_inc/conv" precision="FP32" type="Convolution">
			<data dilation-x="1" dilation-y="1" group="1" kernel-x="1" kernel-y="1" output="32" pad-b="0" pad-r="0" pad-x="0" pad-y="0" stride="1,1,1,1" stride-x="1" stride-y="1"/>
			<input>
				<port id="0">
					<dim>1</dim>
					<dim>8</dim>
					<dim>160</dim>
					<dim>272</dim>
				</port>
			</input>
			<output>
				<port id="3">
					<dim>1</dim>
					<dim>32</dim>
					<dim>160</dim>
					<dim>272</dim>
				</port>
			</output>
			<blobs>
				<weights offset="4984" size="1024"/>
				<biases offset="6008" size="128"/>
			</blobs>
		</layer>
		<layer id="9" name="bottleneck1_1/add" precision="FP32" type="Eltwise">
			<data coeff="" operation="sum"/>
			<input>
				<port id="0">
					<dim>1</dim>
					<dim>32</dim>
					<dim>160</dim>
					<dim>272</dim>
				</port>
				<port id="1">
					<dim>1</dim>
					<dim>32</dim>
					<dim>160</dim>
					<dim>272</dim>
				</port>
			</input>
			<output>
				<port id="2">
					<dim>1</dim>
					<dim>32</dim>
					<dim>160</dim>
					<dim>272</dim>
				</port>
			</output>
		</layer>
		<layer id="10" name="bottleneck1_1/fn" precision="FP32" type="ReLU">
			<data negative_slope="0.10000000149011612"/>
			<input>
				<port id="0">
					<dim>1</dim>
					<dim>32</dim>
					<dim>160</dim>
					<dim>272</dim>
				</port>
			</input>
			<output>
				<port id="1">
					<dim>1</dim>
					<dim>32</dim>
					<dim>160</dim>
					<dim>272</dim>
				</port>
			</output>
		</layer>
		<layer id="11" name="bottleneck1_2/dim_red/conv" precision="FP32" type="Convolution">
			<data dilation-x="1" dilation-y="1" group="1" kernel-x="1" kernel-y="1" output="8" pad-b="0" pad-r="0" pad-x="0" pad-y="0" stride="1,1,1,1" stride-x="1" stride-y="1"/>
			<input>
				<port id="0">
					<dim>1</dim>
					<dim>32</dim>
					<dim>160</dim>
					<dim>272</dim>
				</port>
			</input>
			<output>
				<port id="3">
					<dim>1</dim>
					<dim>8</dim>
					<dim>160</dim>
					<dim>272</dim>
				</port>
			</output>
			<blobs>
				<weights offset="6136" size="1024"/>
				<biases offset="7160" size="32"/>
			</blobs>
		</layer>
		<layer id="12" name="bottleneck1_2/dim_red/fn" precision="FP32" type="ReLU">
			<data negative_slope="0.10000000149011612"/>
			<input>
				<port id="0">
					<dim>1</dim>
					<dim>8</dim>
					<dim>160</dim>
					<dim>272</dim>
				</port>
			</input>
			<output>
				<port id="1">
					<dim>1</dim>
					<dim>8</dim>
					<dim>160</dim>
					<dim>272</dim>
				</port>
			</output>
		</layer>
		<layer id="13" name="bottleneck1_2/inner/dw1/conv" precision="FP32" type="Convolution">
			<data dilation-x="1" dilation-y="1" group="8" kernel-x="3" kernel-y="3" output="8" pad-b="1" pad-r="1" pad-x="1" pad-y="1" stride="1,1,1,1" stride-x="1" stride-y="1"/>
			<input>
				<port id="0">
					<dim>1</dim>
					<dim>8</dim>
					<dim>160</dim>
					<dim>272</dim>
				</port>
			</input>
			<output>
				<port id="3">
					<dim>1</dim>
					<dim>8</dim>
					<dim>160</dim>
					<dim>272</dim>
				</port>
			</output>
			<blobs>
				<weights offset="7192" size="288"/>
				<biases offset="7480" size="32"/>
			</blobs>
		</layer>
		<layer id="14" name="bottleneck1_2/inner/dw1/fn" precision="FP32" type="ReLU">
			<data negative_slope="0.10000000149011612"/>
			<input>
				<port id="0">
					<dim>1</dim>
					<dim>8</dim>
					<dim>160</dim>
					<dim>272</dim>
				</port>
			</input>
			<output>
				<port id="1">
					<dim>1</dim>
					<dim>8</dim>
					<dim>160</dim>
					<dim>272</dim>
				</port>
			</output>
		</layer>
		<layer id="15" name="bottleneck1_2/dim_inc/conv" precision="FP32" type="Convolution">
			<data dilation-x="1" dilation-y="1" group="1" kernel-x="1" kernel-y="1" output="32" pad-b="0" pad-r="0" pad-x="0" pad-y="0" stride="1,1,1,1" stride-x="1" stride-y="1"/>
			<input>
				<port id="0">
					<dim>1</dim>
					<dim>8</dim>
					<dim>160</dim>
					<dim>272</dim>
				</port>
			</input>
			<output>
				<port id="3">
					<dim>1</dim>
					<dim>32</dim>
					<dim>160</dim>
					<dim>272</dim>
				</port>
			</output>
			<blobs>
				<weights offset="7512" size="1024"/>
				<biases offset="8536" size="128"/>
			</blobs>
		</layer>
		<layer id="16" name="bottleneck1_2/add" precision="FP32" type="Eltwise">
			<data coeff="" operation="sum"/>
			<input>
				<port id="0">
					<dim>1</dim>
					<dim>32</dim>
					<dim>160</dim>
					<dim>272</dim>
				</port>
				<port id="1">
					<dim>1</dim>
					<dim>32</dim>
					<dim>160</dim>
					<dim>272</dim>
				</port>
			</input>
			<output>
				<port id="2">
					<dim>1</dim>
					<dim>32</dim>
					<dim>160</dim>
					<dim>272</dim>
				</port>
			</output>
		</layer>
		<layer id="17" name="bottleneck1_2/fn" precision="FP32" type="ReLU">
			<data negative_slope="0.10000000149011612"/>
			<input>
				<port id="0">
					<dim>1</dim>
					<dim>32</dim>
					<dim>160</dim>
					<dim>272</dim>
				</port>
			</input>
			<output>
				<port id="1">
					<dim>1</dim>
					<dim>32</dim>
					<dim>160</dim>
					<dim>272</dim>
				</port>
			</output>
		</layer>
		<layer id="18" name="bottleneck1_3/dim_red/conv" precision="FP32" type="Convolution">
			<data dilation-x="1" dilation-y="1" group="1" kernel-x="1" kernel-y="1" output="8" pad-b="0" pad-r="0" pad-x="0" pad-y="0" stride="1,1,1,1" stride-x="1" stride-y="1"/>
			<input>
				<port id="0">
					<dim>1</dim>
					<dim>32</dim>
					<dim>160</dim>
					<dim>272</dim>
				</port>
			</input>
			<output>
				<port id="3">
					<dim>1</dim>
					<dim>8</dim>
					<dim>160</dim>
					<dim>272</dim>
				</port>
			</output>
			<blobs>
				<weights offset="8664" size="1024"/>
				<biases offset="9688" size="32"/>
			</blobs>
		</layer>
		<layer id="19" name="bottleneck1_3/dim_red/fn" precision="FP32" type="ReLU">
			<data negative_slope="0.10000000149011612"/>
			<input>
				<port id="0">
					<dim>1</dim>
					<dim>8</dim>
					<dim>160</dim>
					<dim>272</dim>
				</port>
			</input>
			<output>
				<port id="1">
					<dim>1</dim>
					<dim>8</dim>
					<dim>160</dim>
					<dim>272</dim>
				</port>
			</output>
		</layer>
		<layer id="20" name="bottleneck1_3/inner/dw1/conv" precision="FP32" type="Convolution">
			<data dilation-x="1" dilation-y="1" group="8" kernel-x="3" kernel-y="3" output="8" pad-b="1" pad-r="1" pad-x="1" pad-y="1" stride="1,1,1,1" stride-x="1" stride-y="1"/>
			<input>
				<port id="0">
					<dim>1</dim>
					<dim>8</dim>
					<dim>160</dim>
					<dim>272</dim>
				</port>
			</input>
			<output>
				<port id="3">
					<dim>1</dim>
					<dim>8</dim>
					<dim>160</dim>
					<dim>272</dim>
				</port>
			</output>
			<blobs>
				<weights offset="9720" size="288"/>
				<biases offset="10008" size="32"/>
			</blobs>
		</layer>
		<layer id="21" name="bottleneck1_3/inner/dw1/fn" precision="FP32" type="ReLU">
			<data negative_slope="0.10000000149011612"/>
			<input>
				<port id="0">
					<dim>1</dim>
					<dim>8</dim>
					<dim>160</dim>
					<dim>272</dim>
				</port>
			</input>
			<output>
				<port id="1">
					<dim>1</dim>
					<dim>8</dim>
					<dim>160</dim>
					<dim>272</dim>
				</port>
			</output>
		</layer>
		<layer id="22" name="bottleneck1_3/dim_inc/conv" precision="FP32" type="Convolution">
			<data dilation-x="1" dilation-y="1" group="1" kernel-x="1" kernel-y="1" output="32" pad-b="0" pad-r="0" pad-x="0" pad-y="0" stride="1,1,1,1" stride-x="1" stride-y="1"/>
			<input>
				<port id="0">
					<dim>1</dim>
					<dim>8</dim>
					<dim>160</dim>
					<dim>272</dim>
				</port>
			</input>
			<output>
				<port id="3">
					<dim>1</dim>
					<dim>32</dim>
					<dim>160</dim>
					<dim>272</dim>
				</port>
			</output>
			<blobs>
				<weights offset="10040" size="1024"/>
				<biases offset="11064" size="128"/>
			</blobs>
		</layer>
		<layer id="23" name="bottleneck1_3/add" precision="FP32" type="Eltwise">
			<data coeff="" operation="sum"/>
			<input>
				<port id="0">
					<dim>1</dim>
					<dim>32</dim>
					<dim>160</dim>
					<dim>272</dim>
				</port>
				<port id="1">
					<dim>1</dim>
					<dim>32</dim>
					<dim>160</dim>
					<dim>272</dim>
				</port>
			</input>
			<output>
				<port id="2">
					<dim>1</dim>
					<dim>32</dim>
					<dim>160</dim>
					<dim>272</dim>
				</port>
			</output>
		</layer>
		<layer id="24" name="bottleneck1_3/fn" precision="FP32" type="ReLU">
			<data negative_slope="0.10000000149011612"/>
			<input>
				<port id="0">
					<dim>1</dim>
					<dim>32</dim>
					<dim>160</dim>
					<dim>272</dim>
				</port>
			</input>
			<output>
				<port id="1">
					<dim>1</dim>
					<dim>32</dim>
					<dim>160</dim>
					<dim>272</dim>
				</port>
			</output>
		</layer>
		<layer id="25" name="bottleneck1_4/dim_red/conv" precision="FP32" type="Convolution">
			<data dilation-x="1" dilation-y="1" group="1" kernel-x="1" kernel-y="1" output="8" pad-b="0" pad-r="0" pad-x="0" pad-y="0" stride="1,1,1,1" stride-x="1" stride-y="1"/>
			<input>
				<port id="0">
					<dim>1</dim>
					<dim>32</dim>
					<dim>160</dim>
					<dim>272</dim>
				</port>
			</input>
			<output>
				<port id="3">
					<dim>1</dim>
					<dim>8</dim>
					<dim>160</dim>
					<dim>272</dim>
				</port>
			</output>
			<blobs>
				<weights offset="11192" size="1024"/>
				<biases offset="12216" size="32"/>
			</blobs>
		</layer>
		<layer id="26" name="bottleneck1_4/dim_red/fn" precision="FP32" type="ReLU">
			<data negative_slope="0.10000000149011612"/>
			<input>
				<port id="0">
					<dim>1</dim>
					<dim>8</dim>
					<dim>160</dim>
					<dim>272</dim>
				</port>
			</input>
			<output>
				<port id="1">
					<dim>1</dim>
					<dim>8</dim>
					<dim>160</dim>
					<dim>272</dim>
				</port>
			</output>
		</layer>
		<layer id="27" name="bottleneck1_4/inner/dw1/conv" precision="FP32" type="Convolution">
			<data dilation-x="1" dilation-y="1" group="8" kernel-x="3" kernel-y="3" output="8" pad-b="1" pad-r="1" pad-x="1" pad-y="1" stride="1,1,1,1" stride-x="1" stride-y="1"/>
			<input>
				<port id="0">
					<dim>1</dim>
					<dim>8</dim>
					<dim>160</dim>
					<dim>272</dim>
				</port>
			</input>
			<output>
				<port id="3">
					<dim>1</dim>
					<dim>8</dim>
					<dim>160</dim>
					<dim>272</dim>
				</port>
			</output>
			<blobs>
				<weights offset="12248" size="288"/>
				<biases offset="12536" size="32"/>
			</blobs>
		</layer>
		<layer id="28" name="bottleneck1_4/inner/dw1/fn" precision="FP32" type="ReLU">
			<data negative_slope="0.10000000149011612"/>
			<input>
				<port id="0">
					<dim>1</dim>
					<dim>8</dim>
					<dim>160</dim>
					<dim>272</dim>
				</port>
			</input>
			<output>
				<port id="1">
					<dim>1</dim>
					<dim>8</dim>
					<dim>160</dim>
					<dim>272</dim>
				</port>
			</output>
		</layer>
		<layer id="29" name="bottleneck1_4/dim_inc/conv" precision="FP32" type="Convolution">
			<data dilation-x="1" dilation-y="1" group="1" kernel-x="1" kernel-y="1" output="32" pad-b="0" pad-r="0" pad-x="0" pad-y="0" stride="1,1,1,1" stride-x="1" stride-y="1"/>
			<input>
				<port id="0">
					<dim>1</dim>
					<dim>8</dim>
					<dim>160</dim>
					<dim>272</dim>
				</port>
			</input>
			<output>
				<port id="3">
					<dim>1</dim>
					<dim>32</dim>
					<dim>160</dim>
					<dim>272</dim>
				</port>
			</output>
			<blobs>
				<weights offset="12568" size="1024"/>
				<biases offset="13592" size="128"/>
			</blobs>
		</layer>
		<layer id="30" name="bottleneck1_4/add" precision="FP32" type="Eltwise">
			<data coeff="" operation="sum"/>
			<input>
				<port id="0">
					<dim>1</dim>
					<dim>32</dim>
					<dim>160</dim>
					<dim>272</dim>
				</port>
				<port id="1">
					<dim>1</dim>
					<dim>32</dim>
					<dim>160</dim>
					<dim>272</dim>
				</port>
			</input>
			<output>
				<port id="2">
					<dim>1</dim>
					<dim>32</dim>
					<dim>160</dim>
					<dim>272</dim>
				</port>
			</output>
		</layer>
		<layer id="31" name="bottleneck1_4/fn" precision="FP32" type="ReLU">
			<data negative_slope="0.10000000149011612"/>
			<input>
				<port id="0">
					<dim>1</dim>
					<dim>32</dim>
					<dim>160</dim>
					<dim>272</dim>
				</port>
			</input>
			<output>
				<port id="1">
					<dim>1</dim>
					<dim>32</dim>
					<dim>160</dim>
					<dim>272</dim>
				</port>
			</output>
		</layer>
		<layer id="32" name="bottleneck2_0/skip/pooling" precision="FP32" type="Pooling">
			<data exclude-pad="false" kernel-x="2" kernel-y="2" pad-b="0" pad-r="0" pad-x="0" pad-y="0" pool-method="max" rounding-type="ceil" stride="1,1,2,2" stride-x="2" stride-y="2"/>
			<input>
				<port id="0">
					<dim>1</dim>
					<dim>32</dim>
					<dim>160</dim>
					<dim>272</dim>
				</port>
			</input>
			<output>
				<port id="1">
					<dim>1</dim>
					<dim>32</dim>
					<dim>80</dim>
					<dim>136</dim>
				</port>
			</output>
		</layer>
		<layer id="33" name="bottleneck2_0/skip/conv" precision="FP32" type="Convolution">
			<data dilation-x="1" dilation-y="1" group="1" kernel-x="1" kernel-y="1" output="64" pad-b="0" pad-r="0" pad-x="0" pad-y="0" stride="1,1,1,1" stride-x="1" stride-y="1"/>
			<input>
				<port id="0">
					<dim>1</dim>
					<dim>32</dim>
					<dim>80</dim>
					<dim>136</dim>
				</port>
			</input>
			<output>
				<port id="3">
					<dim>1</dim>
					<dim>64</dim>
					<dim>80</dim>
					<dim>136</dim>
				</port>
			</output>
			<blobs>
				<weights offset="13720" size="8192"/>
				<biases offset="21912" size="256"/>
			</blobs>
		</layer>
		<layer id="34" name="bottleneck2_0/dim_red/conv" precision="FP32" type="Convolution">
			<data dilation-x="1" dilation-y="1" group="1" kernel-x="1" kernel-y="1" output="16" pad-b="0" pad-r="0" pad-x="0" pad-y="0" stride="1,1,1,1" stride-x="1" stride-y="1"/>
			<input>
				<port id="0">
					<dim>1</dim>
					<dim>32</dim>
					<dim>160</dim>
					<dim>272</dim>
				</port>
			</input>
			<output>
				<port id="3">
					<dim>1</dim>
					<dim>16</dim>
					<dim>160</dim>
					<dim>272</dim>
				</port>
			</output>
			<blobs>
				<weights offset="22168" size="2048"/>
				<biases offset="24216" size="64"/>
			</blobs>
		</layer>
		<layer id="35" name="bottleneck2_0/dim_red/fn" precision="FP32" type="ReLU">
			<data negative_slope="0.10000000149011612"/>
			<input>
				<port id="0">
					<dim>1</dim>
					<dim>16</dim>
					<dim>160</dim>
					<dim>272</dim>
				</port>
			</input>
			<output>
				<port id="1">
					<dim>1</dim>
					<dim>16</dim>
					<dim>160</dim>
					<dim>272</dim>
				</port>
			</output>
		</layer>
		<layer id="36" name="bottleneck2_0/inner/dw1/conv" precision="FP32" type="Convolution">
			<data dilation-x="1" dilation-y="1" group="16" kernel-x="3" kernel-y="3" output="16" pad-b="1" pad-r="1" pad-x="1" pad-y="1" stride="1,1,2,2" stride-x="2" stride-y="2"/>
			<input>
				<port id="0">
					<dim>1</dim>
					<dim>16</dim>
					<dim>160</dim>
					<dim>272</dim>
				</port>
			</input>
			<output>
				<port id="3">
					<dim>1</dim>
					<dim>16</dim>
					<dim>80</dim>
					<dim>136</dim>
				</port>
			</output>
			<blobs>
				<weights offset="24280" size="576"/>
				<biases offset="24856" size="64"/>
			</blobs>
		</layer>
		<layer id="37" name="bottleneck2_0/inner/dw1/fn" precision="FP32" type="ReLU">
			<data negative_slope="0.10000000149011612"/>
			<input>
				<port id="0">
					<dim>1</dim>
					<dim>16</dim>
					<dim>80</dim>
					<dim>136</dim>
				</port>
			</input>
			<output>
				<port id="1">
					<dim>1</dim>
					<dim>16</dim>
					<dim>80</dim>
					<dim>136</dim>
				</port>
			</output>
		</layer>
		<layer id="38" name="bottleneck2_0/dim_inc/conv" precision="FP32" type="Convolution">
			<data dilation-x="1" dilation-y="1" group="1" kernel-x="1" kernel-y="1" output="64" pad-b="0" pad-r="0" pad-x="0" pad-y="0" stride="1,1,1,1" stride-x="1" stride-y="1"/>
			<input>
				<port id="0">
					<dim>1</dim>
					<dim>16</dim>
					<dim>80</dim>
					<dim>136</dim>
				</port>
			</input>
			<output>
				<port id="3">
					<dim>1</dim>
					<dim>64</dim>
					<dim>80</dim>
					<dim>136</dim>
				</port>
			</output>
			<blobs>
				<weights offset="24920" size="4096"/>
				<biases offset="29016" size="256"/>
			</blobs>
		</layer>
		<layer id="39" name="bottleneck2_0/add" precision="FP32" type="Eltwise">
			<data coeff="" operation="sum"/>
			<input>
				<port id="0">
					<dim>1</dim>
					<dim>64</dim>
					<dim>80</dim>
					<dim>136</dim>
				</port>
				<port id="1">
					<dim>1</dim>
					<dim>64</dim>
					<dim>80</dim>
					<dim>136</dim>
				</port>
			</input>
			<output>
				<port id="2">
					<dim>1</dim>
					<dim>64</dim>
					<dim>80</dim>
					<dim>136</dim>
				</port>
			</output>
		</layer>
		<layer id="40" name="bottleneck2_0/fn" precision="FP32" type="ReLU">
			<data negative_slope="0.10000000149011612"/>
			<input>
				<port id="0">
					<dim>1</dim>
					<dim>64</dim>
					<dim>80</dim>
					<dim>136</dim>
				</port>
			</input>
			<output>
				<port id="1">
					<dim>1</dim>
					<dim>64</dim>
					<dim>80</dim>
					<dim>136</dim>
				</port>
			</output>
		</layer>
		<layer id="41" name="bottleneck2_1/dim_red/conv" precision="FP32" type="Convolution">
			<data dilation-x="1" dilation-y="1" group="1" kernel-x="1" kernel-y="1" output="16" pad-b="0" pad-r="0" pad-x="0" pad-y="0" stride="1,1,1,1" stride-x="1" stride-y="1"/>
			<input>
				<port id="0">
					<dim>1</dim>
					<dim>64</dim>
					<dim>80</dim>
					<dim>136</dim>
				</port>
			</input>
			<output>
				<port id="3">
					<dim>1</dim>
					<dim>16</dim>
					<dim>80</dim>
					<dim>136</dim>
				</port>
			</output>
			<blobs>
				<weights offset="29272" size="4096"/>
				<biases offset="33368" size="64"/>
			</blobs>
		</layer>
		<layer id="42" name="bottleneck2_1/dim_red/fn" precision="FP32" type="ReLU">
			<data negative_slope="0.10000000149011612"/>
			<input>
				<port id="0">
					<dim>1</dim>
					<dim>16</dim>
					<dim>80</dim>
					<dim>136</dim>
				</port>
			</input>
			<output>
				<port id="1">
					<dim>1</dim>
					<dim>16</dim>
					<dim>80</dim>
					<dim>136</dim>
				</port>
			</output>
		</layer>
		<layer id="43" name="bottleneck2_1/inner/dw1/conv" precision="FP32" type="Convolution">
			<data dilation-x="1" dilation-y="1" group="16" kernel-x="3" kernel-y="3" output="16" pad-b="1" pad-r="1" pad-x="1" pad-y="1" stride="1,1,1,1" stride-x="1" stride-y="1"/>
			<input>
				<port id="0">
					<dim>1</dim>
					<dim>16</dim>
					<dim>80</dim>
					<dim>136</dim>
				</port>
			</input>
			<output>
				<port id="3">
					<dim>1</dim>
					<dim>16</dim>
					<dim>80</dim>
					<dim>136</dim>
				</port>
			</output>
			<blobs>
				<weights offset="33432" size="576"/>
				<biases offset="34008" size="64"/>
			</blobs>
		</layer>
		<layer id="44" name="bottleneck2_1/inner/dw1/fn" precision="FP32" type="ReLU">
			<data negative_slope="0.10000000149011612"/>
			<input>
				<port id="0">
					<dim>1</dim>
					<dim>16</dim>
					<dim>80</dim>
					<dim>136</dim>
				</port>
			</input>
			<output>
				<port id="1">
					<dim>1</dim>
					<dim>16</dim>
					<dim>80</dim>
					<dim>136</dim>
				</port>
			</output>
		</layer>
		<layer id="45" name="bottleneck2_1/dim_inc/conv" precision="FP32" type="Convolution">
			<data dilation-x="1" dilation-y="1" group="1" kernel-x="1" kernel-y="1" output="64" pad-b="0" pad-r="0" pad-x="0" pad-y="0" stride="1,1,1,1" stride-x="1" stride-y="1"/>
			<input>
				<port id="0">
					<dim>1</dim>
					<dim>16</dim>
					<dim>80</dim>
					<dim>136</dim>
				</port>
			</input>
			<output>
				<port id="3">
					<dim>1</dim>
					<dim>64</dim>
					<dim>80</dim>
					<dim>136</dim>
				</port>
			</output>
			<blobs>
				<weights offset="34072" size="4096"/>
				<biases offset="38168" size="256"/>
			</blobs>
		</layer>
		<layer id="46" name="bottleneck2_1/add" precision="FP32" type="Eltwise">
			<data coeff="" operation="sum"/>
			<input>
				<port id="0">
					<dim>1</dim>
					<dim>64</dim>
					<dim>80</dim>
					<dim>136</dim>
				</port>
				<port id="1">
					<dim>1</dim>
					<dim>64</dim>
					<dim>80</dim>
					<dim>136</dim>
				</port>
			</input>
			<output>
				<port id="2">
					<dim>1</dim>
					<dim>64</dim>
					<dim>80</dim>
					<dim>136</dim>
				</port>
			</output>
		</layer>
		<layer id="47" name="bottleneck2_1/fn" precision="FP32" type="ReLU">
			<data negative_slope="0.10000000149011612"/>
			<input>
				<port id="0">
					<dim>1</dim>
					<dim>64</dim>
					<dim>80</dim>
					<dim>136</dim>
				</port>
			</input>
			<output>
				<port id="1">
					<dim>1</dim>
					<dim>64</dim>
					<dim>80</dim>
					<dim>136</dim>
				</port>
			</output>
		</layer>
		<layer id="48" name="bottleneck2_2/dim_red/conv" precision="FP32" type="Convolution">
			<data dilation-x="1" dilation-y="1" group="1" kernel-x="1" kernel-y="1" output="16" pad-b="0" pad-r="0" pad-x="0" pad-y="0" stride="1,1,1,1" stride-x="1" stride-y="1"/>
			<input>
				<port id="0">
					<dim>1</dim>
					<dim>64</dim>
					<dim>80</dim>
					<dim>136</dim>
				</port>
			</input>
			<output>
				<port id="3">
					<dim>1</dim>
					<dim>16</dim>
					<dim>80</dim>
					<dim>136</dim>
				</port>
			</output>
			<blobs>
				<weights offset="38424" size="4096"/>
				<biases offset="42520" size="64"/>
			</blobs>
		</layer>
		<layer id="49" name="bottleneck2_2/dim_red/fn" precision="FP32" type="ReLU">
			<data negative_slope="0.10000000149011612"/>
			<input>
				<port id="0">
					<dim>1</dim>
					<dim>16</dim>
					<dim>80</dim>
					<dim>136</dim>
				</port>
			</input>
			<output>
				<port id="1">
					<dim>1</dim>
					<dim>16</dim>
					<dim>80</dim>
					<dim>136</dim>
				</port>
			</output>
		</layer>
		<layer id="50" name="bottleneck2_2/inner/dw1/conv" precision="FP32" type="Convolution">
			<data dilation-x="1" dilation-y="1" group="16" kernel-x="3" kernel-y="3" output="16" pad-b="1" pad-r="1" pad-x="1" pad-y="1" stride="1,1,1,1" stride-x="1" stride-y="1"/>
			<input>
				<port id="0">
					<dim>1</dim>
					<dim>16</dim>
					<dim>80</dim>
					<dim>136</dim>
				</port>
			</input>
			<output>
				<port id="3">
					<dim>1</dim>
					<dim>16</dim>
					<dim>80</dim>
					<dim>136</dim>
				</port>
			</output>
			<blobs>
				<weights offset="42584" size="576"/>
				<biases offset="43160" size="64"/>
			</blobs>
		</layer>
		<layer id="51" name="bottleneck2_2/inner/dw1/fn" precision="FP32" type="ReLU">
			<data negative_slope="0.10000000149011612"/>
			<input>
				<port id="0">
					<dim>1</dim>
					<dim>16</dim>
					<dim>80</dim>
					<dim>136</dim>
				</port>
			</input>
			<output>
				<port id="1">
					<dim>1</dim>
					<dim>16</dim>
					<dim>80</dim>
					<dim>136</dim>
				</port>
			</output>
		</layer>
		<layer id="52" name="bottleneck2_2/dim_inc/conv" precision="FP32" type="Convolution">
			<data dilation-x="1" dilation-y="1" group="1" kernel-x="1" kernel-y="1" output="64" pad-b="0" pad-r="0" pad-x="0" pad-y="0" stride="1,1,1,1" stride-x="1" stride-y="1"/>
			<input>
				<port id="0">
					<dim>1</dim>
					<dim>16</dim>
					<dim>80</dim>
					<dim>136</dim>
				</port>
			</input>
			<output>
				<port id="3">
					<dim>1</dim>
					<dim>64</dim>
					<dim>80</dim>
					<dim>136</dim>
				</port>
			</output>
			<blobs>
				<weights offset="43224" size="4096"/>
				<biases offset="47320" size="256"/>
			</blobs>
		</layer>
		<layer id="53" name="bottleneck2_2/add" precision="FP32" type="Eltwise">
			<data coeff="" operation="sum"/>
			<input>
				<port id="0">
					<dim>1</dim>
					<dim>64</dim>
					<dim>80</dim>
					<dim>136</dim>
				</port>
				<port id="1">
					<dim>1</dim>
					<dim>64</dim>
					<dim>80</dim>
					<dim>136</dim>
				</port>
			</input>
			<output>
				<port id="2">
					<dim>1</dim>
					<dim>64</dim>
					<dim>80</dim>
					<dim>136</dim>
				</port>
			</output>
		</layer>
		<layer id="54" name="bottleneck2_2/fn" precision="FP32" type="ReLU">
			<data negative_slope="0.10000000149011612"/>
			<input>
				<port id="0">
					<dim>1</dim>
					<dim>64</dim>
					<dim>80</dim>
					<dim>136</dim>
				</port>
			</input>
			<output>
				<port id="1">
					<dim>1</dim>
					<dim>64</dim>
					<dim>80</dim>
					<dim>136</dim>
				</port>
			</output>
		</layer>
		<layer id="55" name="bottleneck2_3/dim_red/conv" precision="FP32" type="Convolution">
			<data dilation-x="1" dilation-y="1" group="1" kernel-x="1" kernel-y="1" output="16" pad-b="0" pad-r="0" pad-x="0" pad-y="0" stride="1,1,1,1" stride-x="1" stride-y="1"/>
			<input>
				<port id="0">
					<dim>1</dim>
					<dim>64</dim>
					<dim>80</dim>
					<dim>136</dim>
				</port>
			</input>
			<output>
				<port id="3">
					<dim>1</dim>
					<dim>16</dim>
					<dim>80</dim>
					<dim>136</dim>
				</port>
			</output>
			<blobs>
				<weights offset="47576" size="4096"/>
				<biases offset="51672" size="64"/>
			</blobs>
		</layer>
		<layer id="56" name="bottleneck2_3/dim_red/fn" precision="FP32" type="ReLU">
			<data negative_slope="0.10000000149011612"/>
			<input>
				<port id="0">
					<dim>1</dim>
					<dim>16</dim>
					<dim>80</dim>
					<dim>136</dim>
				</port>
			</input>
			<output>
				<port id="1">
					<dim>1</dim>
					<dim>16</dim>
					<dim>80</dim>
					<dim>136</dim>
				</port>
			</output>
		</layer>
		<layer id="57" name="bottleneck2_3/inner/dw1/conv" precision="FP32" type="Convolution">
			<data dilation-x="1" dilation-y="1" group="16" kernel-x="3" kernel-y="3" output="16" pad-b="1" pad-r="1" pad-x="1" pad-y="1" stride="1,1,1,1" stride-x="1" stride-y="1"/>
			<input>
				<port id="0">
					<dim>1</dim>
					<dim>16</dim>
					<dim>80</dim>
					<dim>136</dim>
				</port>
			</input>
			<output>
				<port id="3">
					<dim>1</dim>
					<dim>16</dim>
					<dim>80</dim>
					<dim>136</dim>
				</port>
			</output>
			<blobs>
				<weights offset="51736" size="576"/>
				<biases offset="52312" size="64"/>
			</blobs>
		</layer>
		<layer id="58" name="bottleneck2_3/inner/dw1/fn" precision="FP32" type="ReLU">
			<data negative_slope="0.10000000149011612"/>
			<input>
				<port id="0">
					<dim>1</dim>
					<dim>16</dim>
					<dim>80</dim>
					<dim>136</dim>
				</port>
			</input>
			<output>
				<port id="1">
					<dim>1</dim>
					<dim>16</dim>
					<dim>80</dim>
					<dim>136</dim>
				</port>
			</output>
		</layer>
		<layer id="59" name="bottleneck2_3/dim_inc/conv" precision="FP32" type="Convolution">
			<data dilation-x="1" dilation-y="1" group="1" kernel-x="1" kernel-y="1" output="64" pad-b="0" pad-r="0" pad-x="0" pad-y="0" stride="1,1,1,1" stride-x="1" stride-y="1"/>
			<input>
				<port id="0">
					<dim>1</dim>
					<dim>16</dim>
					<dim>80</dim>
					<dim>136</dim>
				</port>
			</input>
			<output>
				<port id="3">
					<dim>1</dim>
					<dim>64</dim>
					<dim>80</dim>
					<dim>136</dim>
				</port>
			</output>
			<blobs>
				<weights offset="52376" size="4096"/>
				<biases offset="56472" size="256"/>
			</blobs>
		</layer>
		<layer id="60" name="bottleneck2_3/add" precision="FP32" type="Eltwise">
			<data coeff="" operation="sum"/>
			<input>
				<port id="0">
					<dim>1</dim>
					<dim>64</dim>
					<dim>80</dim>
					<dim>136</dim>
				</port>
				<port id="1">
					<dim>1</dim>
					<dim>64</dim>
					<dim>80</dim>
					<dim>136</dim>
				</port>
			</input>
			<output>
				<port id="2">
					<dim>1</dim>
					<dim>64</dim>
					<dim>80</dim>
					<dim>136</dim>
				</port>
			</output>
		</layer>
		<layer id="61" name="bottleneck2_3/fn" precision="FP32" type="ReLU">
			<data negative_slope="0.10000000149011612"/>
			<input>
				<port id="0">
					<dim>1</dim>
					<dim>64</dim>
					<dim>80</dim>
					<dim>136</dim>
				</port>
			</input>
			<output>
				<port id="1">
					<dim>1</dim>
					<dim>64</dim>
					<dim>80</dim>
					<dim>136</dim>
				</port>
			</output>
		</layer>
		<layer id="62" name="bottleneck2_4/dim_red/conv" precision="FP32" type="Convolution">
			<data dilation-x="1" dilation-y="1" group="1" kernel-x="1" kernel-y="1" output="16" pad-b="0" pad-r="0" pad-x="0" pad-y="0" stride="1,1,1,1" stride-x="1" stride-y="1"/>
			<input>
				<port id="0">
					<dim>1</dim>
					<dim>64</dim>
					<dim>80</dim>
					<dim>136</dim>
				</port>
			</input>
			<output>
				<port id="3">
					<dim>1</dim>
					<dim>16</dim>
					<dim>80</dim>
					<dim>136</dim>
				</port>
			</output>
			<blobs>
				<weights offset="56728" size="4096"/>
				<biases offset="60824" size="64"/>
			</blobs>
		</layer>
		<layer id="63" name="bottleneck2_4/dim_red/fn" precision="FP32" type="ReLU">
			<data negative_slope="0.10000000149011612"/>
			<input>
				<port id="0">
					<dim>1</dim>
					<dim>16</dim>
					<dim>80</dim>
					<dim>136</dim>
				</port>
			</input>
			<output>
				<port id="1">
					<dim>1</dim>
					<dim>16</dim>
					<dim>80</dim>
					<dim>136</dim>
				</port>
			</output>
		</layer>
		<layer id="64" name="bottleneck2_4/inner/dw1/conv" precision="FP32" type="Convolution">
			<data dilation-x="1" dilation-y="1" group="16" kernel-x="3" kernel-y="3" output="16" pad-b="1" pad-r="1" pad-x="1" pad-y="1" stride="1,1,1,1" stride-x="1" stride-y="1"/>
			<input>
				<port id="0">
					<dim>1</dim>
					<dim>16</dim>
					<dim>80</dim>
					<dim>136</dim>
				</port>
			</input>
			<output>
				<port id="3">
					<dim>1</dim>
					<dim>16</dim>
					<dim>80</dim>
					<dim>136</dim>
				</port>
			</output>
			<blobs>
				<weights offset="60888" size="576"/>
				<biases offset="61464" size="64"/>
			</blobs>
		</layer>
		<layer id="65" name="bottleneck2_4/inner/dw1/fn" precision="FP32" type="ReLU">
			<data negative_slope="0.10000000149011612"/>
			<input>
				<port id="0">
					<dim>1</dim>
					<dim>16</dim>
					<dim>80</dim>
					<dim>136</dim>
				</port>
			</input>
			<output>
				<port id="1">
					<dim>1</dim>
					<dim>16</dim>
					<dim>80</dim>
					<dim>136</dim>
				</port>
			</output>
		</layer>
		<layer id="66" name="bottleneck2_4/dim_inc/conv" precision="FP32" type="Convolution">
			<data dilation-x="1" dilation-y="1" group="1" kernel-x="1" kernel-y="1" output="64" pad-b="0" pad-r="0" pad-x="0" pad-y="0" stride="1,1,1,1" stride-x="1" stride-y="1"/>
			<input>
				<port id="0">
					<dim>1</dim>
					<dim>16</dim>
					<dim>80</dim>
					<dim>136</dim>
				</port>
			</input>
			<output>
				<port id="3">
					<dim>1</dim>
					<dim>64</dim>
					<dim>80</dim>
					<dim>136</dim>
				</port>
			</output>
			<blobs>
				<weights offset="61528" size="4096"/>
				<biases offset="65624" size="256"/>
			</blobs>
		</layer>
		<layer id="67" name="bottleneck2_4/add" precision="FP32" type="Eltwise">
			<data coeff="" operation="sum"/>
			<input>
				<port id="0">
					<dim>1</dim>
					<dim>64</dim>
					<dim>80</dim>
					<dim>136</dim>
				</port>
				<port id="1">
					<dim>1</dim>
					<dim>64</dim>
					<dim>80</dim>
					<dim>136</dim>
				</port>
			</input>
			<output>
				<port id="2">
					<dim>1</dim>
					<dim>64</dim>
					<dim>80</dim>
					<dim>136</dim>
				</port>
			</output>
		</layer>
		<layer id="68" name="bottleneck2_4/fn" precision="FP32" type="ReLU">
			<data negative_slope="0.10000000149011612"/>
			<input>
				<port id="0">
					<dim>1</dim>
					<dim>64</dim>
					<dim>80</dim>
					<dim>136</dim>
				</port>
			</input>
			<output>
				<port id="1">
					<dim>1</dim>
					<dim>64</dim>
					<dim>80</dim>
					<dim>136</dim>
				</port>
			</output>
		</layer>
		<layer id="69" name="bottleneck2_5/dim_red/conv" precision="FP32" type="Convolution">
			<data dilation-x="1" dilation-y="1" group="1" kernel-x="1" kernel-y="1" output="16" pad-b="0" pad-r="0" pad-x="0" pad-y="0" stride="1,1,1,1" stride-x="1" stride-y="1"/>
			<input>
				<port id="0">
					<dim>1</dim>
					<dim>64</dim>
					<dim>80</dim>
					<dim>136</dim>
				</port>
			</input>
			<output>
				<port id="3">
					<dim>1</dim>
					<dim>16</dim>
					<dim>80</dim>
					<dim>136</dim>
				</port>
			</output>
			<blobs>
				<weights offset="65880" size="4096"/>
				<biases offset="69976" size="64"/>
			</blobs>
		</layer>
		<layer id="70" name="bottleneck2_5/dim_red/fn" precision="FP32" type="ReLU">
			<data negative_slope="0.10000000149011612"/>
			<input>
				<port id="0">
					<dim>1</dim>
					<dim>16</dim>
					<dim>80</dim>
					<dim>136</dim>
				</port>
			</input>
			<output>
				<port id="1">
					<dim>1</dim>
					<dim>16</dim>
					<dim>80</dim>
					<dim>136</dim>
				</port>
			</output>
		</layer>
		<layer id="71" name="bottleneck2_5/inner/dw1/conv" precision="FP32" type="Convolution">
			<data dilation-x="1" dilation-y="1" group="16" kernel-x="3" kernel-y="3" output="16" pad-b="1" pad-r="1" pad-x="1" pad-y="1" stride="1,1,1,1" stride-x="1" stride-y="1"/>
			<input>
				<port id="0">
					<dim>1</dim>
					<dim>16</dim>
					<dim>80</dim>
					<dim>136</dim>
				</port>
			</input>
			<output>
				<port id="3">
					<dim>1</dim>
					<dim>16</dim>
					<dim>80</dim>
					<dim>136</dim>
				</port>
			</output>
			<blobs>
				<weights offset="70040" size="576"/>
				<biases offset="70616" size="64"/>
			</blobs>
		</layer>
		<layer id="72" name="bottleneck2_5/inner/dw1/fn" precision="FP32" type="ReLU">
			<data negative_slope="0.10000000149011612"/>
			<input>
				<port id="0">
					<dim>1</dim>
					<dim>16</dim>
					<dim>80</dim>
					<dim>136</dim>
				</port>
			</input>
			<output>
				<port id="1">
					<dim>1</dim>
					<dim>16</dim>
					<dim>80</dim>
					<dim>136</dim>
				</port>
			</output>
		</layer>
		<layer id="73" name="bottleneck2_5/dim_inc/conv" precision="FP32" type="Convolution">
			<data dilation-x="1" dilation-y="1" group="1" kernel-x="1" kernel-y="1" output="64" pad-b="0" pad-r="0" pad-x="0" pad-y="0" stride="1,1,1,1" stride-x="1" stride-y="1"/>
			<input>
				<port id="0">
					<dim>1</dim>
					<dim>16</dim>
					<dim>80</dim>
					<dim>136</dim>
				</port>
			</input>
			<output>
				<port id="3">
					<dim>1</dim>
					<dim>64</dim>
					<dim>80</dim>
					<dim>136</dim>
				</port>
			</output>
			<blobs>
				<weights offset="70680" size="4096"/>
				<biases offset="74776" size="256"/>
			</blobs>
		</layer>
		<layer id="74" name="bottleneck2_5/add" precision="FP32" type="Eltwise">
			<data coeff="" operation="sum"/>
			<input>
				<port id="0">
					<dim>1</dim>
					<dim>64</dim>
					<dim>80</dim>
					<dim>136</dim>
				</port>
				<port id="1">
					<dim>1</dim>
					<dim>64</dim>
					<dim>80</dim>
					<dim>136</dim>
				</port>
			</input>
			<output>
				<port id="2">
					<dim>1</dim>
					<dim>64</dim>
					<dim>80</dim>
					<dim>136</dim>
				</port>
			</output>
		</layer>
		<layer id="75" name="bottleneck2_5/fn" precision="FP32" type="ReLU">
			<data negative_slope="0.10000000149011612"/>
			<input>
				<port id="0">
					<dim>1</dim>
					<dim>64</dim>
					<dim>80</dim>
					<dim>136</dim>
				</port>
			</input>
			<output>
				<port id="1">
					<dim>1</dim>
					<dim>64</dim>
					<dim>80</dim>
					<dim>136</dim>
				</port>
			</output>
		</layer>
		<layer id="76" name="bottleneck2_6/dim_red/conv" precision="FP32" type="Convolution">
			<data dilation-x="1" dilation-y="1" group="1" kernel-x="1" kernel-y="1" output="16" pad-b="0" pad-r="0" pad-x="0" pad-y="0" stride="1,1,1,1" stride-x="1" stride-y="1"/>
			<input>
				<port id="0">
					<dim>1</dim>
					<dim>64</dim>
					<dim>80</dim>
					<dim>136</dim>
				</port>
			</input>
			<output>
				<port id="3">
					<dim>1</dim>
					<dim>16</dim>
					<dim>80</dim>
					<dim>136</dim>
				</port>
			</output>
			<blobs>
				<weights offset="75032" size="4096"/>
				<biases offset="79128" size="64"/>
			</blobs>
		</layer>
		<layer id="77" name="bottleneck2_6/dim_red/fn" precision="FP32" type="ReLU">
			<data negative_slope="0.10000000149011612"/>
			<input>
				<port id="0">
					<dim>1</dim>
					<dim>16</dim>
					<dim>80</dim>
					<dim>136</dim>
				</port>
			</input>
			<output>
				<port id="1">
					<dim>1</dim>
					<dim>16</dim>
					<dim>80</dim>
					<dim>136</dim>
				</port>
			</output>
		</layer>
		<layer id="78" name="bottleneck2_6/inner/dw1/conv" precision="FP32" type="Convolution">
			<data dilation-x="1" dilation-y="1" group="16" kernel-x="3" kernel-y="3" output="16" pad-b="1" pad-r="1" pad-x="1" pad-y="1" stride="1,1,1,1" stride-x="1" stride-y="1"/>
			<input>
				<port id="0">
					<dim>1</dim>
					<dim>16</dim>
					<dim>80</dim>
					<dim>136</dim>
				</port>
			</input>
			<output>
				<port id="3">
					<dim>1</dim>
					<dim>16</dim>
					<dim>80</dim>
					<dim>136</dim>
				</port>
			</output>
			<blobs>
				<weights offset="79192" size="576"/>
				<biases offset="79768" size="64"/>
			</blobs>
		</layer>
		<layer id="79" name="bottleneck2_6/inner/dw1/fn" precision="FP32" type="ReLU">
			<data negative_slope="0.10000000149011612"/>
			<input>
				<port id="0">
					<dim>1</dim>
					<dim>16</dim>
					<dim>80</dim>
					<dim>136</dim>
				</port>
			</input>
			<output>
				<port id="1">
					<dim>1</dim>
					<dim>16</dim>
					<dim>80</dim>
					<dim>136</dim>
				</port>
			</output>
		</layer>
		<layer id="80" name="bottleneck2_6/dim_inc/conv" precision="FP32" type="Convolution">
			<data dilation-x="1" dilation-y="1" group="1" kernel-x="1" kernel-y="1" output="64" pad-b="0" pad-r="0" pad-x="0" pad-y="0" stride="1,1,1,1" stride-x="1" stride-y="1"/>
			<input>
				<port id="0">
					<dim>1</dim>
					<dim>16</dim>
					<dim>80</dim>
					<dim>136</dim>
				</port>
			</input>
			<output>
				<port id="3">
					<dim>1</dim>
					<dim>64</dim>
					<dim>80</dim>
					<dim>136</dim>
				</port>
			</output>
			<blobs>
				<weights offset="79832" size="4096"/>
				<biases offset="83928" size="256"/>
			</blobs>
		</layer>
		<layer id="81" name="bottleneck2_6/add" precision="FP32" type="Eltwise">
			<data coeff="" operation="sum"/>
			<input>
				<port id="0">
					<dim>1</dim>
					<dim>64</dim>
					<dim>80</dim>
					<dim>136</dim>
				</port>
				<port id="1">
					<dim>1</dim>
					<dim>64</dim>
					<dim>80</dim>
					<dim>136</dim>
				</port>
			</input>
			<output>
				<port id="2">
					<dim>1</dim>
					<dim>64</dim>
					<dim>80</dim>
					<dim>136</dim>
				</port>
			</output>
		</layer>
		<layer id="82" name="bottleneck2_6/fn" precision="FP32" type="ReLU">
			<data negative_slope="0.10000000149011612"/>
			<input>
				<port id="0">
					<dim>1</dim>
					<dim>64</dim>
					<dim>80</dim>
					<dim>136</dim>
				</port>
			</input>
			<output>
				<port id="1">
					<dim>1</dim>
					<dim>64</dim>
					<dim>80</dim>
					<dim>136</dim>
				</port>
			</output>
		</layer>
		<layer id="83" name="bottleneck2_7/dim_red/conv" precision="FP32" type="Convolution">
			<data dilation-x="1" dilation-y="1" group="1" kernel-x="1" kernel-y="1" output="16" pad-b="0" pad-r="0" pad-x="0" pad-y="0" stride="1,1,1,1" stride-x="1" stride-y="1"/>
			<input>
				<port id="0">
					<dim>1</dim>
					<dim>64</dim>
					<dim>80</dim>
					<dim>136</dim>
				</port>
			</input>
			<output>
				<port id="3">
					<dim>1</dim>
					<dim>16</dim>
					<dim>80</dim>
					<dim>136</dim>
				</port>
			</output>
			<blobs>
				<weights offset="84184" size="4096"/>
				<biases offset="88280" size="64"/>
			</blobs>
		</layer>
		<layer id="84" name="bottleneck2_7/dim_red/fn" precision="FP32" type="ReLU">
			<data negative_slope="0.10000000149011612"/>
			<input>
				<port id="0">
					<dim>1</dim>
					<dim>16</dim>
					<dim>80</dim>
					<dim>136</dim>
				</port>
			</input>
			<output>
				<port id="1">
					<dim>1</dim>
					<dim>16</dim>
					<dim>80</dim>
					<dim>136</dim>
				</port>
			</output>
		</layer>
		<layer id="85" name="bottleneck2_7/inner/dw1/conv" precision="FP32" type="Convolution">
			<data dilation-x="1" dilation-y="1" group="16" kernel-x="3" kernel-y="3" output="16" pad-b="1" pad-r="1" pad-x="1" pad-y="1" stride="1,1,1,1" stride-x="1" stride-y="1"/>
			<input>
				<port id="0">
					<dim>1</dim>
					<dim>16</dim>
					<dim>80</dim>
					<dim>136</dim>
				</port>
			</input>
			<output>
				<port id="3">
					<dim>1</dim>
					<dim>16</dim>
					<dim>80</dim>
					<dim>136</dim>
				</port>
			</output>
			<blobs>
				<weights offset="88344" size="576"/>
				<biases offset="88920" size="64"/>
			</blobs>
		</layer>
		<layer id="86" name="bottleneck2_7/inner/dw1/fn" precision="FP32" type="ReLU">
			<data negative_slope="0.10000000149011612"/>
			<input>
				<port id="0">
					<dim>1</dim>
					<dim>16</dim>
					<dim>80</dim>
					<dim>136</dim>
				</port>
			</input>
			<output>
				<port id="1">
					<dim>1</dim>
					<dim>16</dim>
					<dim>80</dim>
					<dim>136</dim>
				</port>
			</output>
		</layer>
		<layer id="87" name="bottleneck2_7/dim_inc/conv" precision="FP32" type="Convolution">
			<data dilation-x="1" dilation-y="1" group="1" kernel-x="1" kernel-y="1" output="64" pad-b="0" pad-r="0" pad-x="0" pad-y="0" stride="1,1,1,1" stride-x="1" stride-y="1"/>
			<input>
				<port id="0">
					<dim>1</dim>
					<dim>16</dim>
					<dim>80</dim>
					<dim>136</dim>
				</port>
			</input>
			<output>
				<port id="3">
					<dim>1</dim>
					<dim>64</dim>
					<dim>80</dim>
					<dim>136</dim>
				</port>
			</output>
			<blobs>
				<weights offset="88984" size="4096"/>
				<biases offset="93080" size="256"/>
			</blobs>
		</layer>
		<layer id="88" name="bottleneck2_7/add" precision="FP32" type="Eltwise">
			<data coeff="" operation="sum"/>
			<input>
				<port id="0">
					<dim>1</dim>
					<dim>64</dim>
					<dim>80</dim>
					<dim>136</dim>
				</port>
				<port id="1">
					<dim>1</dim>
					<dim>64</dim>
					<dim>80</dim>
					<dim>136</dim>
				</port>
			</input>
			<output>
				<port id="2">
					<dim>1</dim>
					<dim>64</dim>
					<dim>80</dim>
					<dim>136</dim>
				</port>
			</output>
		</layer>
		<layer id="89" name="bottleneck2_7/fn" precision="FP32" type="ReLU">
			<data negative_slope="0.10000000149011612"/>
			<input>
				<port id="0">
					<dim>1</dim>
					<dim>64</dim>
					<dim>80</dim>
					<dim>136</dim>
				</port>
			</input>
			<output>
				<port id="1">
					<dim>1</dim>
					<dim>64</dim>
					<dim>80</dim>
					<dim>136</dim>
				</port>
			</output>
		</layer>
		<layer id="90" name="bottleneck2_8/dim_red/conv" precision="FP32" type="Convolution">
			<data dilation-x="1" dilation-y="1" group="1" kernel-x="1" kernel-y="1" output="16" pad-b="0" pad-r="0" pad-x="0" pad-y="0" stride="1,1,1,1" stride-x="1" stride-y="1"/>
			<input>
				<port id="0">
					<dim>1</dim>
					<dim>64</dim>
					<dim>80</dim>
					<dim>136</dim>
				</port>
			</input>
			<output>
				<port id="3">
					<dim>1</dim>
					<dim>16</dim>
					<dim>80</dim>
					<dim>136</dim>
				</port>
			</output>
			<blobs>
				<weights offset="93336" size="4096"/>
				<biases offset="97432" size="64"/>
			</blobs>
		</layer>
		<layer id="91" name="bottleneck2_8/dim_red/fn" precision="FP32" type="ReLU">
			<data negative_slope="0.10000000149011612"/>
			<input>
				<port id="0">
					<dim>1</dim>
					<dim>16</dim>
					<dim>80</dim>
					<dim>136</dim>
				</port>
			</input>
			<output>
				<port id="1">
					<dim>1</dim>
					<dim>16</dim>
					<dim>80</dim>
					<dim>136</dim>
				</port>
			</output>
		</layer>
		<layer id="92" name="bottleneck2_8/inner/dw1/conv" precision="FP32" type="Convolution">
			<data dilation-x="1" dilation-y="1" group="16" kernel-x="3" kernel-y="3" output="16" pad-b="1" pad-r="1" pad-x="1" pad-y="1" stride="1,1,1,1" stride-x="1" stride-y="1"/>
			<input>
				<port id="0">
					<dim>1</dim>
					<dim>16</dim>
					<dim>80</dim>
					<dim>136</dim>
				</port>
			</input>
			<output>
				<port id="3">
					<dim>1</dim>
					<dim>16</dim>
					<dim>80</dim>
					<dim>136</dim>
				</port>
			</output>
			<blobs>
				<weights offset="97496" size="576"/>
				<biases offset="98072" size="64"/>
			</blobs>
		</layer>
		<layer id="93" name="bottleneck2_8/inner/dw1/fn" precision="FP32" type="ReLU">
			<data negative_slope="0.10000000149011612"/>
			<input>
				<port id="0">
					<dim>1</dim>
					<dim>16</dim>
					<dim>80</dim>
					<dim>136</dim>
				</port>
			</input>
			<output>
				<port id="1">
					<dim>1</dim>
					<dim>16</dim>
					<dim>80</dim>
					<dim>136</dim>
				</port>
			</output>
		</layer>
		<layer id="94" name="bottleneck2_8/dim_inc/conv" precision="FP32" type="Convolution">
			<data dilation-x="1" dilation-y="1" group="1" kernel-x="1" kernel-y="1" output="64" pad-b="0" pad-r="0" pad-x="0" pad-y="0" stride="1,1,1,1" stride-x="1" stride-y="1"/>
			<input>
				<port id="0">
					<dim>1</dim>
					<dim>16</dim>
					<dim>80</dim>
					<dim>136</dim>
				</port>
			</input>
			<output>
				<port id="3">
					<dim>1</dim>
					<dim>64</dim>
					<dim>80</dim>
					<dim>136</dim>
				</port>
			</output>
			<blobs>
				<weights offset="98136" size="4096"/>
				<biases offset="102232" size="256"/>
			</blobs>
		</layer>
		<layer id="95" name="bottleneck2_8/add" precision="FP32" type="Eltwise">
			<data coeff="" operation="sum"/>
			<input>
				<port id="0">
					<dim>1</dim>
					<dim>64</dim>
					<dim>80</dim>
					<dim>136</dim>
				</port>
				<port id="1">
					<dim>1</dim>
					<dim>64</dim>
					<dim>80</dim>
					<dim>136</dim>
				</port>
			</input>
			<output>
				<port id="2">
					<dim>1</dim>
					<dim>64</dim>
					<dim>80</dim>
					<dim>136</dim>
				</port>
			</output>
		</layer>
		<layer id="96" name="bottleneck2_8/fn" precision="FP32" type="ReLU">
			<data negative_slope="0.10000000149011612"/>
			<input>
				<port id="0">
					<dim>1</dim>
					<dim>64</dim>
					<dim>80</dim>
					<dim>136</dim>
				</port>
			</input>
			<output>
				<port id="1">
					<dim>1</dim>
					<dim>64</dim>
					<dim>80</dim>
					<dim>136</dim>
				</port>
			</output>
		</layer>
		<layer id="97" name="bottleneck3_0/skip/pooling" precision="FP32" type="Pooling">
			<data exclude-pad="false" kernel-x="2" kernel-y="2" pad-b="0" pad-r="0" pad-x="0" pad-y="0" pool-method="max" rounding-type="ceil" stride="1,1,2,2" stride-x="2" stride-y="2"/>
			<input>
				<port id="0">
					<dim>1</dim>
					<dim>64</dim>
					<dim>80</dim>
					<dim>136</dim>
				</port>
			</input>
			<output>
				<port id="1">
					<dim>1</dim>
					<dim>64</dim>
					<dim>40</dim>
					<dim>68</dim>
				</port>
			</output>
		</layer>
		<layer id="98" name="bottleneck3_0/skip/conv" precision="FP32" type="Convolution">
			<data dilation-x="1" dilation-y="1" group="1" kernel-x="1" kernel-y="1" output="128" pad-b="0" pad-r="0" pad-x="0" pad-y="0" stride="1,1,1,1" stride-x="1" stride-y="1"/>
			<input>
				<port id="0">
					<dim>1</dim>
					<dim>64</dim>
					<dim>40</dim>
					<dim>68</dim>
				</port>
			</input>
			<output>
				<port id="3">
					<dim>1</dim>
					<dim>128</dim>
					<dim>40</dim>
					<dim>68</dim>
				</port>
			</output>
			<blobs>
				<weights offset="102488" size="32768"/>
				<biases offset="135256" size="512"/>
			</blobs>
		</layer>
		<layer id="99" name="bottleneck3_0/dim_red/conv" precision="FP32" type="Convolution">
			<data dilation-x="1" dilation-y="1" group="1" kernel-x="1" kernel-y="1" output="32" pad-b="0" pad-r="0" pad-x="0" pad-y="0" stride="1,1,1,1" stride-x="1" stride-y="1"/>
			<input>
				<port id="0">
					<dim>1</dim>
					<dim>64</dim>
					<dim>80</dim>
					<dim>136</dim>
				</port>
			</input>
			<output>
				<port id="3">
					<dim>1</dim>
					<dim>32</dim>
					<dim>80</dim>
					<dim>136</dim>
				</port>
			</output>
			<blobs>
				<weights offset="135768" size="8192"/>
				<biases offset="143960" size="128"/>
			</blobs>
		</layer>
		<layer id="100" name="bottleneck3_0/dim_red/fn" precision="FP32" type="ReLU">
			<data negative_slope="0.10000000149011612"/>
			<input>
				<port id="0">
					<dim>1</dim>
					<dim>32</dim>
					<dim>80</dim>
					<dim>136</dim>
				</port>
			</input>
			<output>
				<port id="1">
					<dim>1</dim>
					<dim>32</dim>
					<dim>80</dim>
					<dim>136</dim>
				</port>
			</output>
		</layer>
		<layer id="101" name="bottleneck3_0/inner/dw1/conv" precision="FP32" type="Convolution">
			<data dilation-x="1" dilation-y="1" group="32" kernel-x="3" kernel-y="3" output="32" pad-b="1" pad-r="1" pad-x="1" pad-y="1" stride="1,1,2,2" stride-x="2" stride-y="2"/>
			<input>
				<port id="0">
					<dim>1</dim>
					<dim>32</dim>
					<dim>80</dim>
					<dim>136</dim>
				</port>
			</input>
			<output>
				<port id="3">
					<dim>1</dim>
					<dim>32</dim>
					<dim>40</dim>
					<dim>68</dim>
				</port>
			</output>
			<blobs>
				<weights offset="144088" size="1152"/>
				<biases offset="145240" size="128"/>
			</blobs>
		</layer>
		<layer id="102" name="bottleneck3_0/inner/dw1/fn" precision="FP32" type="ReLU">
			<data negative_slope="0.10000000149011612"/>
			<input>
				<port id="0">
					<dim>1</dim>
					<dim>32</dim>
					<dim>40</dim>
					<dim>68</dim>
				</port>
			</input>
			<output>
				<port id="1">
					<dim>1</dim>
					<dim>32</dim>
					<dim>40</dim>
					<dim>68</dim>
				</port>
			</output>
		</layer>
		<layer id="103" name="bottleneck3_0/dim_inc/conv" precision="FP32" type="Convolution">
			<data dilation-x="1" dilation-y="1" group="1" kernel-x="1" kernel-y="1" output="128" pad-b="0" pad-r="0" pad-x="0" pad-y="0" stride="1,1,1,1" stride-x="1" stride-y="1"/>
			<input>
				<port id="0">
					<dim>1</dim>
					<dim>32</dim>
					<dim>40</dim>
					<dim>68</dim>
				</port>
			</input>
			<output>
				<port id="3">
					<dim>1</dim>
					<dim>128</dim>
					<dim>40</dim>
					<dim>68</dim>
				</port>
			</output>
			<blobs>
				<weights offset="145368" size="16384"/>
				<biases offset="161752" size="512"/>
			</blobs>
		</layer>
		<layer id="104" name="bottleneck3_0/add" precision="FP32" type="Eltwise">
			<data coeff="" operation="sum"/>
			<input>
				<port id="0">
					<dim>1</dim>
					<dim>128</dim>
					<dim>40</dim>
					<dim>68</dim>
				</port>
				<port id="1">
					<dim>1</dim>
					<dim>128</dim>
					<dim>40</dim>
					<dim>68</dim>
				</port>
			</input>
			<output>
				<port id="2">
					<dim>1</dim>
					<dim>128</dim>
					<dim>40</dim>
					<dim>68</dim>
				</port>
			</output>
		</layer>
		<layer id="105" name="bottleneck3_0/fn" precision="FP32" type="ReLU">
			<data negative_slope="0.10000000149011612"/>
			<input>
				<port id="0">
					<dim>1</dim>
					<dim>128</dim>
					<dim>40</dim>
					<dim>68</dim>
				</port>
			</input>
			<output>
				<port id="1">
					<dim>1</dim>
					<dim>128</dim>
					<dim>40</dim>
					<dim>68</dim>
				</port>
			</output>
		</layer>
		<layer id="106" name="bottleneck3_1/dim_red/conv" precision="FP32" type="Convolution">
			<data dilation-x="1" dilation-y="1" group="1" kernel-x="1" kernel-y="1" output="32" pad-b="0" pad-r="0" pad-x="0" pad-y="0" stride="1,1,1,1" stride-x="1" stride-y="1"/>
			<input>
				<port id="0">
					<dim>1</dim>
					<dim>128</dim>
					<dim>40</dim>
					<dim>68</dim>
				</port>
			</input>
			<output>
				<port id="3">
					<dim>1</dim>
					<dim>32</dim>
					<dim>40</dim>
					<dim>68</dim>
				</port>
			</output>
			<blobs>
				<weights offset="162264" size="16384"/>
				<biases offset="178648" size="128"/>
			</blobs>
		</layer>
		<layer id="107" name="bottleneck3_1/dim_red/fn" precision="FP32" type="ReLU">
			<data negative_slope="0.10000000149011612"/>
			<input>
				<port id="0">
					<dim>1</dim>
					<dim>32</dim>
					<dim>40</dim>
					<dim>68</dim>
				</port>
			</input>
			<output>
				<port id="1">
					<dim>1</dim>
					<dim>32</dim>
					<dim>40</dim>
					<dim>68</dim>
				</port>
			</output>
		</layer>
		<layer id="108" name="bottleneck3_1/inner/dw1/conv" precision="FP32" type="Convolution">
			<data dilation-x="1" dilation-y="1" group="32" kernel-x="3" kernel-y="3" output="32" pad-b="1" pad-r="1" pad-x="1" pad-y="1" stride="1,1,1,1" stride-x="1" stride-y="1"/>
			<input>
				<port id="0">
					<dim>1</dim>
					<dim>32</dim>
					<dim>40</dim>
					<dim>68</dim>
				</port>
			</input>
			<output>
				<port id="3">
					<dim>1</dim>
					<dim>32</dim>
					<dim>40</dim>
					<dim>68</dim>
				</port>
			</output>
			<blobs>
				<weights offset="178776" size="1152"/>
				<biases offset="179928" size="128"/>
			</blobs>
		</layer>
		<layer id="109" name="bottleneck3_1/inner/dw1/fn" precision="FP32" type="ReLU">
			<data negative_slope="0.10000000149011612"/>
			<input>
				<port id="0">
					<dim>1</dim>
					<dim>32</dim>
					<dim>40</dim>
					<dim>68</dim>
				</port>
			</input>
			<output>
				<port id="1">
					<dim>1</dim>
					<dim>32</dim>
					<dim>40</dim>
					<dim>68</dim>
				</port>
			</output>
		</layer>
		<layer id="110" name="bottleneck3_1/dim_inc/conv" precision="FP32" type="Convolution">
			<data dilation-x="1" dilation-y="1" group="1" kernel-x="1" kernel-y="1" output="128" pad-b="0" pad-r="0" pad-x="0" pad-y="0" stride="1,1,1,1" stride-x="1" stride-y="1"/>
			<input>
				<port id="0">
					<dim>1</dim>
					<dim>32</dim>
					<dim>40</dim>
					<dim>68</dim>
				</port>
			</input>
			<output>
				<port id="3">
					<dim>1</dim>
					<dim>128</dim>
					<dim>40</dim>
					<dim>68</dim>
				</port>
			</output>
			<blobs>
				<weights offset="180056" size="16384"/>
				<biases offset="196440" size="512"/>
			</blobs>
		</layer>
		<layer id="111" name="bottleneck3_1/add" precision="FP32" type="Eltwise">
			<data coeff="" operation="sum"/>
			<input>
				<port id="0">
					<dim>1</dim>
					<dim>128</dim>
					<dim>40</dim>
					<dim>68</dim>
				</port>
				<port id="1">
					<dim>1</dim>
					<dim>128</dim>
					<dim>40</dim>
					<dim>68</dim>
				</port>
			</input>
			<output>
				<port id="2">
					<dim>1</dim>
					<dim>128</dim>
					<dim>40</dim>
					<dim>68</dim>
				</port>
			</output>
		</layer>
		<layer id="112" name="bottleneck3_1/fn" precision="FP32" type="ReLU">
			<data negative_slope="0.10000000149011612"/>
			<input>
				<port id="0">
					<dim>1</dim>
					<dim>128</dim>
					<dim>40</dim>
					<dim>68</dim>
				</port>
			</input>
			<output>
				<port id="1">
					<dim>1</dim>
					<dim>128</dim>
					<dim>40</dim>
					<dim>68</dim>
				</port>
			</output>
		</layer>
		<layer id="113" name="bottleneck3_2/dim_red/conv" precision="FP32" type="Convolution">
			<data dilation-x="1" dilation-y="1" group="1" kernel-x="1" kernel-y="1" output="32" pad-b="0" pad-r="0" pad-x="0" pad-y="0" stride="1,1,1,1" stride-x="1" stride-y="1"/>
			<input>
				<port id="0">
					<dim>1</dim>
					<dim>128</dim>
					<dim>40</dim>
					<dim>68</dim>
				</port>
			</input>
			<output>
				<port id="3">
					<dim>1</dim>
					<dim>32</dim>
					<dim>40</dim>
					<dim>68</dim>
				</port>
			</output>
			<blobs>
				<weights offset="196952" size="16384"/>
				<biases offset="213336" size="128"/>
			</blobs>
		</layer>
		<layer id="114" name="bottleneck3_2/dim_red/fn" precision="FP32" type="ReLU">
			<data negative_slope="0.10000000149011612"/>
			<input>
				<port id="0">
					<dim>1</dim>
					<dim>32</dim>
					<dim>40</dim>
					<dim>68</dim>
				</port>
			</input>
			<output>
				<port id="1">
					<dim>1</dim>
					<dim>32</dim>
					<dim>40</dim>
					<dim>68</dim>
				</port>
			</output>
		</layer>
		<layer id="115" name="bottleneck3_2/inner/dw1/conv" precision="FP32" type="Convolution">
			<data dilation-x="1" dilation-y="1" group="32" kernel-x="3" kernel-y="3" output="32" pad-b="1" pad-r="1" pad-x="1" pad-y="1" stride="1,1,1,1" stride-x="1" stride-y="1"/>
			<input>
				<port id="0">
					<dim>1</dim>
					<dim>32</dim>
					<dim>40</dim>
					<dim>68</dim>
				</port>
			</input>
			<output>
				<port id="3">
					<dim>1</dim>
					<dim>32</dim>
					<dim>40</dim>
					<dim>68</dim>
				</port>
			</output>
			<blobs>
				<weights offset="213464" size="1152"/>
				<biases offset="214616" size="128"/>
			</blobs>
		</layer>
		<layer id="116" name="bottleneck3_2/inner/dw1/fn" precision="FP32" type="ReLU">
			<data negative_slope="0.10000000149011612"/>
			<input>
				<port id="0">
					<dim>1</dim>
					<dim>32</dim>
					<dim>40</dim>
					<dim>68</dim>
				</port>
			</input>
			<output>
				<port id="1">
					<dim>1</dim>
					<dim>32</dim>
					<dim>40</dim>
					<dim>68</dim>
				</port>
			</output>
		</layer>
		<layer id="117" name="bottleneck3_2/dim_inc/conv" precision="FP32" type="Convolution">
			<data dilation-x="1" dilation-y="1" group="1" kernel-x="1" kernel-y="1" output="128" pad-b="0" pad-r="0" pad-x="0" pad-y="0" stride="1,1,1,1" stride-x="1" stride-y="1"/>
			<input>
				<port id="0">
					<dim>1</dim>
					<dim>32</dim>
					<dim>40</dim>
					<dim>68</dim>
				</port>
			</input>
			<output>
				<port id="3">
					<dim>1</dim>
					<dim>128</dim>
					<dim>40</dim>
					<dim>68</dim>
				</port>
			</output>
			<blobs>
				<weights offset="214744" size="16384"/>
				<biases offset="231128" size="512"/>
			</blobs>
		</layer>
		<layer id="118" name="bottleneck3_2/add" precision="FP32" type="Eltwise">
			<data coeff="" operation="sum"/>
			<input>
				<port id="0">
					<dim>1</dim>
					<dim>128</dim>
					<dim>40</dim>
					<dim>68</dim>
				</port>
				<port id="1">
					<dim>1</dim>
					<dim>128</dim>
					<dim>40</dim>
					<dim>68</dim>
				</port>
			</input>
			<output>
				<port id="2">
					<dim>1</dim>
					<dim>128</dim>
					<dim>40</dim>
					<dim>68</dim>
				</port>
			</output>
		</layer>
		<layer id="119" name="bottleneck3_2/fn" precision="FP32" type="ReLU">
			<data negative_slope="0.10000000149011612"/>
			<input>
				<port id="0">
					<dim>1</dim>
					<dim>128</dim>
					<dim>40</dim>
					<dim>68</dim>
				</port>
			</input>
			<output>
				<port id="1">
					<dim>1</dim>
					<dim>128</dim>
					<dim>40</dim>
					<dim>68</dim>
				</port>
			</output>
		</layer>
		<layer id="120" name="bottleneck3_3/dim_red/conv" precision="FP32" type="Convolution">
			<data dilation-x="1" dilation-y="1" group="1" kernel-x="1" kernel-y="1" output="32" pad-b="0" pad-r="0" pad-x="0" pad-y="0" stride="1,1,1,1" stride-x="1" stride-y="1"/>
			<input>
				<port id="0">
					<dim>1</dim>
					<dim>128</dim>
					<dim>40</dim>
					<dim>68</dim>
				</port>
			</input>
			<output>
				<port id="3">
					<dim>1</dim>
					<dim>32</dim>
					<dim>40</dim>
					<dim>68</dim>
				</port>
			</output>
			<blobs>
				<weights offset="231640" size="16384"/>
				<biases offset="248024" size="128"/>
			</blobs>
		</layer>
		<layer id="121" name="bottleneck3_3/dim_red/fn" precision="FP32" type="ReLU">
			<data negative_slope="0.10000000149011612"/>
			<input>
				<port id="0">
					<dim>1</dim>
					<dim>32</dim>
					<dim>40</dim>
					<dim>68</dim>
				</port>
			</input>
			<output>
				<port id="1">
					<dim>1</dim>
					<dim>32</dim>
					<dim>40</dim>
					<dim>68</dim>
				</port>
			</output>
		</layer>
		<layer id="122" name="bottleneck3_3/inner/dw1/conv" precision="FP32" type="Convolution">
			<data dilation-x="1" dilation-y="1" group="32" kernel-x="3" kernel-y="3" output="32" pad-b="1" pad-r="1" pad-x="1" pad-y="1" stride="1,1,1,1" stride-x="1" stride-y="1"/>
			<input>
				<port id="0">
					<dim>1</dim>
					<dim>32</dim>
					<dim>40</dim>
					<dim>68</dim>
				</port>
			</input>
			<output>
				<port id="3">
					<dim>1</dim>
					<dim>32</dim>
					<dim>40</dim>
					<dim>68</dim>
				</port>
			</output>
			<blobs>
				<weights offset="248152" size="1152"/>
				<biases offset="249304" size="128"/>
			</blobs>
		</layer>
		<layer id="123" name="bottleneck3_3/inner/dw1/fn" precision="FP32" type="ReLU">
			<data negative_slope="0.10000000149011612"/>
			<input>
				<port id="0">
					<dim>1</dim>
					<dim>32</dim>
					<dim>40</dim>
					<dim>68</dim>
				</port>
			</input>
			<output>
				<port id="1">
					<dim>1</dim>
					<dim>32</dim>
					<dim>40</dim>
					<dim>68</dim>
				</port>
			</output>
		</layer>
		<layer id="124" name="bottleneck3_3/dim_inc/conv" precision="FP32" type="Convolution">
			<data dilation-x="1" dilation-y="1" group="1" kernel-x="1" kernel-y="1" output="128" pad-b="0" pad-r="0" pad-x="0" pad-y="0" stride="1,1,1,1" stride-x="1" stride-y="1"/>
			<input>
				<port id="0">
					<dim>1</dim>
					<dim>32</dim>
					<dim>40</dim>
					<dim>68</dim>
				</port>
			</input>
			<output>
				<port id="3">
					<dim>1</dim>
					<dim>128</dim>
					<dim>40</dim>
					<dim>68</dim>
				</port>
			</output>
			<blobs>
				<weights offset="249432" size="16384"/>
				<biases offset="265816" size="512"/>
			</blobs>
		</layer>
		<layer id="125" name="bottleneck3_3/add" precision="FP32" type="Eltwise">
			<data coeff="" operation="sum"/>
			<input>
				<port id="0">
					<dim>1</dim>
					<dim>128</dim>
					<dim>40</dim>
					<dim>68</dim>
				</port>
				<port id="1">
					<dim>1</dim>
					<dim>128</dim>
					<dim>40</dim>
					<dim>68</dim>
				</port>
			</input>
			<output>
				<port id="2">
					<dim>1</dim>
					<dim>128</dim>
					<dim>40</dim>
					<dim>68</dim>
				</port>
			</output>
		</layer>
		<layer id="126" name="bottleneck3_3/fn" precision="FP32" type="ReLU">
			<data negative_slope="0.10000000149011612"/>
			<input>
				<port id="0">
					<dim>1</dim>
					<dim>128</dim>
					<dim>40</dim>
					<dim>68</dim>
				</port>
			</input>
			<output>
				<port id="1">
					<dim>1</dim>
					<dim>128</dim>
					<dim>40</dim>
					<dim>68</dim>
				</port>
			</output>
		</layer>
		<layer id="127" name="bottleneck3_4/dim_red/conv" precision="FP32" type="Convolution">
			<data dilation-x="1" dilation-y="1" group="1" kernel-x="1" kernel-y="1" output="32" pad-b="0" pad-r="0" pad-x="0" pad-y="0" stride="1,1,1,1" stride-x="1" stride-y="1"/>
			<input>
				<port id="0">
					<dim>1</dim>
					<dim>128</dim>
					<dim>40</dim>
					<dim>68</dim>
				</port>
			</input>
			<output>
				<port id="3">
					<dim>1</dim>
					<dim>32</dim>
					<dim>40</dim>
					<dim>68</dim>
				</port>
			</output>
			<blobs>
				<weights offset="266328" size="16384"/>
				<biases offset="282712" size="128"/>
			</blobs>
		</layer>
		<layer id="128" name="bottleneck3_4/dim_red/fn" precision="FP32" type="ReLU">
			<data negative_slope="0.10000000149011612"/>
			<input>
				<port id="0">
					<dim>1</dim>
					<dim>32</dim>
					<dim>40</dim>
					<dim>68</dim>
				</port>
			</input>
			<output>
				<port id="1">
					<dim>1</dim>
					<dim>32</dim>
					<dim>40</dim>
					<dim>68</dim>
				</port>
			</output>
		</layer>
		<layer id="129" name="bottleneck3_4/inner/dw1/conv" precision="FP32" type="Convolution">
			<data dilation-x="1" dilation-y="1" group="32" kernel-x="3" kernel-y="3" output="32" pad-b="1" pad-r="1" pad-x="1" pad-y="1" stride="1,1,1,1" stride-x="1" stride-y="1"/>
			<input>
				<port id="0">
					<dim>1</dim>
					<dim>32</dim>
					<dim>40</dim>
					<dim>68</dim>
				</port>
			</input>
			<output>
				<port id="3">
					<dim>1</dim>
					<dim>32</dim>
					<dim>40</dim>
					<dim>68</dim>
				</port>
			</output>
			<blobs>
				<weights offset="282840" size="1152"/>
				<biases offset="283992" size="128"/>
			</blobs>
		</layer>
		<layer id="130" name="bottleneck3_4/inner/dw1/fn" precision="FP32" type="ReLU">
			<data negative_slope="0.10000000149011612"/>
			<input>
				<port id="0">
					<dim>1</dim>
					<dim>32</dim>
					<dim>40</dim>
					<dim>68</dim>
				</port>
			</input>
			<output>
				<port id="1">
					<dim>1</dim>
					<dim>32</dim>
					<dim>40</dim>
					<dim>68</dim>
				</port>
			</output>
		</layer>
		<layer id="131" name="bottleneck3_4/dim_inc/conv" precision="FP32" type="Convolution">
			<data dilation-x="1" dilation-y="1" group="1" kernel-x="1" kernel-y="1" output="128" pad-b="0" pad-r="0" pad-x="0" pad-y="0" stride="1,1,1,1" stride-x="1" stride-y="1"/>
			<input>
				<port id="0">
					<dim>1</dim>
					<dim>32</dim>
					<dim>40</dim>
					<dim>68</dim>
				</port>
			</input>
			<output>
				<port id="3">
					<dim>1</dim>
					<dim>128</dim>
					<dim>40</dim>
					<dim>68</dim>
				</port>
			</output>
			<blobs>
				<weights offset="284120" size="16384"/>
				<biases offset="300504" size="512"/>
			</blobs>
		</layer>
		<layer id="132" name="bottleneck3_4/add" precision="FP32" type="Eltwise">
			<data coeff="" operation="sum"/>
			<input>
				<port id="0">
					<dim>1</dim>
					<dim>128</dim>
					<dim>40</dim>
					<dim>68</dim>
				</port>
				<port id="1">
					<dim>1</dim>
					<dim>128</dim>
					<dim>40</dim>
					<dim>68</dim>
				</port>
			</input>
			<output>
				<port id="2">
					<dim>1</dim>
					<dim>128</dim>
					<dim>40</dim>
					<dim>68</dim>
				</port>
			</output>
		</layer>
		<layer id="133" name="bottleneck3_4/fn" precision="FP32" type="ReLU">
			<data negative_slope="0.10000000149011612"/>
			<input>
				<port id="0">
					<dim>1</dim>
					<dim>128</dim>
					<dim>40</dim>
					<dim>68</dim>
				</port>
			</input>
			<output>
				<port id="1">
					<dim>1</dim>
					<dim>128</dim>
					<dim>40</dim>
					<dim>68</dim>
				</port>
			</output>
		</layer>
		<layer id="134" name="bottleneck3_5/dim_red/conv" precision="FP32" type="Convolution">
			<data dilation-x="1" dilation-y="1" group="1" kernel-x="1" kernel-y="1" output="32" pad-b="0" pad-r="0" pad-x="0" pad-y="0" stride="1,1,1,1" stride-x="1" stride-y="1"/>
			<input>
				<port id="0">
					<dim>1</dim>
					<dim>128</dim>
					<dim>40</dim>
					<dim>68</dim>
				</port>
			</input>
			<output>
				<port id="3">
					<dim>1</dim>
					<dim>32</dim>
					<dim>40</dim>
					<dim>68</dim>
				</port>
			</output>
			<blobs>
				<weights offset="301016" size="16384"/>
				<biases offset="317400" size="128"/>
			</blobs>
		</layer>
		<layer id="135" name="bottleneck3_5/dim_red/fn" precision="FP32" type="ReLU">
			<data negative_slope="0.10000000149011612"/>
			<input>
				<port id="0">
					<dim>1</dim>
					<dim>32</dim>
					<dim>40</dim>
					<dim>68</dim>
				</port>
			</input>
			<output>
				<port id="1">
					<dim>1</dim>
					<dim>32</dim>
					<dim>40</dim>
					<dim>68</dim>
				</port>
			</output>
		</layer>
		<layer id="136" name="bottleneck3_5/inner/dw1/conv" precision="FP32" type="Convolution">
			<data dilation-x="1" dilation-y="1" group="32" kernel-x="3" kernel-y="3" output="32" pad-b="1" pad-r="1" pad-x="1" pad-y="1" stride="1,1,1,1" stride-x="1" stride-y="1"/>
			<input>
				<port id="0">
					<dim>1</dim>
					<dim>32</dim>
					<dim>40</dim>
					<dim>68</dim>
				</port>
			</input>
			<output>
				<port id="3">
					<dim>1</dim>
					<dim>32</dim>
					<dim>40</dim>
					<dim>68</dim>
				</port>
			</output>
			<blobs>
				<weights offset="317528" size="1152"/>
				<biases offset="318680" size="128"/>
			</blobs>
		</layer>
		<layer id="137" name="bottleneck3_5/inner/dw1/fn" precision="FP32" type="ReLU">
			<data negative_slope="0.10000000149011612"/>
			<input>
				<port id="0">
					<dim>1</dim>
					<dim>32</dim>
					<dim>40</dim>
					<dim>68</dim>
				</port>
			</input>
			<output>
				<port id="1">
					<dim>1</dim>
					<dim>32</dim>
					<dim>40</dim>
					<dim>68</dim>
				</port>
			</output>
		</layer>
		<layer id="138" name="bottleneck3_5/dim_inc/conv" precision="FP32" type="Convolution">
			<data dilation-x="1" dilation-y="1" group="1" kernel-x="1" kernel-y="1" output="128" pad-b="0" pad-r="0" pad-x="0" pad-y="0" stride="1,1,1,1" stride-x="1" stride-y="1"/>
			<input>
				<port id="0">
					<dim>1</dim>
					<dim>32</dim>
					<dim>40</dim>
					<dim>68</dim>
				</port>
			</input>
			<output>
				<port id="3">
					<dim>1</dim>
					<dim>128</dim>
					<dim>40</dim>
					<dim>68</dim>
				</port>
			</output>
			<blobs>
				<weights offset="318808" size="16384"/>
				<biases offset="335192" size="512"/>
			</blobs>
		</layer>
		<layer id="139" name="bottleneck3_5/add" precision="FP32" type="Eltwise">
			<data coeff="" operation="sum"/>
			<input>
				<port id="0">
					<dim>1</dim>
					<dim>128</dim>
					<dim>40</dim>
					<dim>68</dim>
				</port>
				<port id="1">
					<dim>1</dim>
					<dim>128</dim>
					<dim>40</dim>
					<dim>68</dim>
				</port>
			</input>
			<output>
				<port id="2">
					<dim>1</dim>
					<dim>128</dim>
					<dim>40</dim>
					<dim>68</dim>
				</port>
			</output>
		</layer>
		<layer id="140" name="bottleneck3_5/fn" precision="FP32" type="ReLU">
			<data negative_slope="0.10000000149011612"/>
			<input>
				<port id="0">
					<dim>1</dim>
					<dim>128</dim>
					<dim>40</dim>
					<dim>68</dim>
				</port>
			</input>
			<output>
				<port id="1">
					<dim>1</dim>
					<dim>128</dim>
					<dim>40</dim>
					<dim>68</dim>
				</port>
			</output>
		</layer>
		<layer id="141" name="bottleneck3_6/dim_red/conv" precision="FP32" type="Convolution">
			<data dilation-x="1" dilation-y="1" group="1" kernel-x="1" kernel-y="1" output="32" pad-b="0" pad-r="0" pad-x="0" pad-y="0" stride="1,1,1,1" stride-x="1" stride-y="1"/>
			<input>
				<port id="0">
					<dim>1</dim>
					<dim>128</dim>
					<dim>40</dim>
					<dim>68</dim>
				</port>
			</input>
			<output>
				<port id="3">
					<dim>1</dim>
					<dim>32</dim>
					<dim>40</dim>
					<dim>68</dim>
				</port>
			</output>
			<blobs>
				<weights offset="335704" size="16384"/>
				<biases offset="352088" size="128"/>
			</blobs>
		</layer>
		<layer id="142" name="bottleneck3_6/dim_red/fn" precision="FP32" type="ReLU">
			<data negative_slope="0.10000000149011612"/>
			<input>
				<port id="0">
					<dim>1</dim>
					<dim>32</dim>
					<dim>40</dim>
					<dim>68</dim>
				</port>
			</input>
			<output>
				<port id="1">
					<dim>1</dim>
					<dim>32</dim>
					<dim>40</dim>
					<dim>68</dim>
				</port>
			</output>
		</layer>
		<layer id="143" name="bottleneck3_6/inner/dw1/conv" precision="FP32" type="Convolution">
			<data dilation-x="1" dilation-y="1" group="32" kernel-x="3" kernel-y="3" output="32" pad-b="1" pad-r="1" pad-x="1" pad-y="1" stride="1,1,1,1" stride-x="1" stride-y="1"/>
			<input>
				<port id="0">
					<dim>1</dim>
					<dim>32</dim>
					<dim>40</dim>
					<dim>68</dim>
				</port>
			</input>
			<output>
				<port id="3">
					<dim>1</dim>
					<dim>32</dim>
					<dim>40</dim>
					<dim>68</dim>
				</port>
			</output>
			<blobs>
				<weights offset="352216" size="1152"/>
				<biases offset="353368" size="128"/>
			</blobs>
		</layer>
		<layer id="144" name="bottleneck3_6/inner/dw1/fn" precision="FP32" type="ReLU">
			<data negative_slope="0.10000000149011612"/>
			<input>
				<port id="0">
					<dim>1</dim>
					<dim>32</dim>
					<dim>40</dim>
					<dim>68</dim>
				</port>
			</input>
			<output>
				<port id="1">
					<dim>1</dim>
					<dim>32</dim>
					<dim>40</dim>
					<dim>68</dim>
				</port>
			</output>
		</layer>
		<layer id="145" name="bottleneck3_6/dim_inc/conv" precision="FP32" type="Convolution">
			<data dilation-x="1" dilation-y="1" group="1" kernel-x="1" kernel-y="1" output="128" pad-b="0" pad-r="0" pad-x="0" pad-y="0" stride="1,1,1,1" stride-x="1" stride-y="1"/>
			<input>
				<port id="0">
					<dim>1</dim>
					<dim>32</dim>
					<dim>40</dim>
					<dim>68</dim>
				</port>
			</input>
			<output>
				<port id="3">
					<dim>1</dim>
					<dim>128</dim>
					<dim>40</dim>
					<dim>68</dim>
				</port>
			</output>
			<blobs>
				<weights offset="353496" size="16384"/>
				<biases offset="369880" size="512"/>
			</blobs>
		</layer>
		<layer id="146" name="bottleneck3_6/add" precision="FP32" type="Eltwise">
			<data coeff="" operation="sum"/>
			<input>
				<port id="0">
					<dim>1</dim>
					<dim>128</dim>
					<dim>40</dim>
					<dim>68</dim>
				</port>
				<port id="1">
					<dim>1</dim>
					<dim>128</dim>
					<dim>40</dim>
					<dim>68</dim>
				</port>
			</input>
			<output>
				<port id="2">
					<dim>1</dim>
					<dim>128</dim>
					<dim>40</dim>
					<dim>68</dim>
				</port>
			</output>
		</layer>
		<layer id="147" name="bottleneck3_6/fn" precision="FP32" type="ReLU">
			<data negative_slope="0.10000000149011612"/>
			<input>
				<port id="0">
					<dim>1</dim>
					<dim>128</dim>
					<dim>40</dim>
					<dim>68</dim>
				</port>
			</input>
			<output>
				<port id="1">
					<dim>1</dim>
					<dim>128</dim>
					<dim>40</dim>
					<dim>68</dim>
				</port>
			</output>
		</layer>
		<layer id="148" name="bottleneck3_7/dim_red/conv" precision="FP32" type="Convolution">
			<data dilation-x="1" dilation-y="1" group="1" kernel-x="1" kernel-y="1" output="32" pad-b="0" pad-r="0" pad-x="0" pad-y="0" stride="1,1,1,1" stride-x="1" stride-y="1"/>
			<input>
				<port id="0">
					<dim>1</dim>
					<dim>128</dim>
					<dim>40</dim>
					<dim>68</dim>
				</port>
			</input>
			<output>
				<port id="3">
					<dim>1</dim>
					<dim>32</dim>
					<dim>40</dim>
					<dim>68</dim>
				</port>
			</output>
			<blobs>
				<weights offset="370392" size="16384"/>
				<biases offset="386776" size="128"/>
			</blobs>
		</layer>
		<layer id="149" name="bottleneck3_7/dim_red/fn" precision="FP32" type="ReLU">
			<data negative_slope="0.10000000149011612"/>
			<input>
				<port id="0">
					<dim>1</dim>
					<dim>32</dim>
					<dim>40</dim>
					<dim>68</dim>
				</port>
			</input>
			<output>
				<port id="1">
					<dim>1</dim>
					<dim>32</dim>
					<dim>40</dim>
					<dim>68</dim>
				</port>
			</output>
		</layer>
		<layer id="150" name="bottleneck3_7/inner/dw1/conv" precision="FP32" type="Convolution">
			<data dilation-x="1" dilation-y="1" group="32" kernel-x="3" kernel-y="3" output="32" pad-b="1" pad-r="1" pad-x="1" pad-y="1" stride="1,1,1,1" stride-x="1" stride-y="1"/>
			<input>
				<port id="0">
					<dim>1</dim>
					<dim>32</dim>
					<dim>40</dim>
					<dim>68</dim>
				</port>
			</input>
			<output>
				<port id="3">
					<dim>1</dim>
					<dim>32</dim>
					<dim>40</dim>
					<dim>68</dim>
				</port>
			</output>
			<blobs>
				<weights offset="386904" size="1152"/>
				<biases offset="388056" size="128"/>
			</blobs>
		</layer>
		<layer id="151" name="bottleneck3_7/inner/dw1/fn" precision="FP32" type="ReLU">
			<data negative_slope="0.10000000149011612"/>
			<input>
				<port id="0">
					<dim>1</dim>
					<dim>32</dim>
					<dim>40</dim>
					<dim>68</dim>
				</port>
			</input>
			<output>
				<port id="1">
					<dim>1</dim>
					<dim>32</dim>
					<dim>40</dim>
					<dim>68</dim>
				</port>
			</output>
		</layer>
		<layer id="152" name="bottleneck3_7/dim_inc/conv" precision="FP32" type="Convolution">
			<data dilation-x="1" dilation-y="1" group="1" kernel-x="1" kernel-y="1" output="128" pad-b="0" pad-r="0" pad-x="0" pad-y="0" stride="1,1,1,1" stride-x="1" stride-y="1"/>
			<input>
				<port id="0">
					<dim>1</dim>
					<dim>32</dim>
					<dim>40</dim>
					<dim>68</dim>
				</port>
			</input>
			<output>
				<port id="3">
					<dim>1</dim>
					<dim>128</dim>
					<dim>40</dim>
					<dim>68</dim>
				</port>
			</output>
			<blobs>
				<weights offset="388184" size="16384"/>
				<biases offset="404568" size="512"/>
			</blobs>
		</layer>
		<layer id="153" name="bottleneck3_7/add" precision="FP32" type="Eltwise">
			<data coeff="" operation="sum"/>
			<input>
				<port id="0">
					<dim>1</dim>
					<dim>128</dim>
					<dim>40</dim>
					<dim>68</dim>
				</port>
				<port id="1">
					<dim>1</dim>
					<dim>128</dim>
					<dim>40</dim>
					<dim>68</dim>
				</port>
			</input>
			<output>
				<port id="2">
					<dim>1</dim>
					<dim>128</dim>
					<dim>40</dim>
					<dim>68</dim>
				</port>
			</output>
		</layer>
		<layer id="154" name="bottleneck3_7/fn" precision="FP32" type="ReLU">
			<data negative_slope="0.10000000149011612"/>
			<input>
				<port id="0">
					<dim>1</dim>
					<dim>128</dim>
					<dim>40</dim>
					<dim>68</dim>
				</port>
			</input>
			<output>
				<port id="1">
					<dim>1</dim>
					<dim>128</dim>
					<dim>40</dim>
					<dim>68</dim>
				</port>
			</output>
		</layer>
		<layer id="155" name="bottleneck3_8/dim_red/conv" precision="FP32" type="Convolution">
			<data dilation-x="1" dilation-y="1" group="1" kernel-x="1" kernel-y="1" output="32" pad-b="0" pad-r="0" pad-x="0" pad-y="0" stride="1,1,1,1" stride-x="1" stride-y="1"/>
			<input>
				<port id="0">
					<dim>1</dim>
					<dim>128</dim>
					<dim>40</dim>
					<dim>68</dim>
				</port>
			</input>
			<output>
				<port id="3">
					<dim>1</dim>
					<dim>32</dim>
					<dim>40</dim>
					<dim>68</dim>
				</port>
			</output>
			<blobs>
				<weights offset="405080" size="16384"/>
				<biases offset="421464" size="128"/>
			</blobs>
		</layer>
		<layer id="156" name="bottleneck3_8/dim_red/fn" precision="FP32" type="ReLU">
			<data negative_slope="0.10000000149011612"/>
			<input>
				<port id="0">
					<dim>1</dim>
					<dim>32</dim>
					<dim>40</dim>
					<dim>68</dim>
				</port>
			</input>
			<output>
				<port id="1">
					<dim>1</dim>
					<dim>32</dim>
					<dim>40</dim>
					<dim>68</dim>
				</port>
			</output>
		</layer>
		<layer id="157" name="bottleneck3_8/inner/dw1/conv" precision="FP32" type="Convolution">
			<data dilation-x="1" dilation-y="1" group="32" kernel-x="3" kernel-y="3" output="32" pad-b="1" pad-r="1" pad-x="1" pad-y="1" stride="1,1,1,1" stride-x="1" stride-y="1"/>
			<input>
				<port id="0">
					<dim>1</dim>
					<dim>32</dim>
					<dim>40</dim>
					<dim>68</dim>
				</port>
			</input>
			<output>
				<port id="3">
					<dim>1</dim>
					<dim>32</dim>
					<dim>40</dim>
					<dim>68</dim>
				</port>
			</output>
			<blobs>
				<weights offset="421592" size="1152"/>
				<biases offset="422744" size="128"/>
			</blobs>
		</layer>
		<layer id="158" name="bottleneck3_8/inner/dw1/fn" precision="FP32" type="ReLU">
			<data negative_slope="0.10000000149011612"/>
			<input>
				<port id="0">
					<dim>1</dim>
					<dim>32</dim>
					<dim>40</dim>
					<dim>68</dim>
				</port>
			</input>
			<output>
				<port id="1">
					<dim>1</dim>
					<dim>32</dim>
					<dim>40</dim>
					<dim>68</dim>
				</port>
			</output>
		</layer>
		<layer id="159" name="bottleneck3_8/dim_inc/conv" precision="FP32" type="Convolution">
			<data dilation-x="1" dilation-y="1" group="1" kernel-x="1" kernel-y="1" output="128" pad-b="0" pad-r="0" pad-x="0" pad-y="0" stride="1,1,1,1" stride-x="1" stride-y="1"/>
			<input>
				<port id="0">
					<dim>1</dim>
					<dim>32</dim>
					<dim>40</dim>
					<dim>68</dim>
				</port>
			</input>
			<output>
				<port id="3">
					<dim>1</dim>
					<dim>128</dim>
					<dim>40</dim>
					<dim>68</dim>
				</port>
			</output>
			<blobs>
				<weights offset="422872" size="16384"/>
				<biases offset="439256" size="512"/>
			</blobs>
		</layer>
		<layer id="160" name="bottleneck3_8/add" precision="FP32" type="Eltwise">
			<data coeff="" operation="sum"/>
			<input>
				<port id="0">
					<dim>1</dim>
					<dim>128</dim>
					<dim>40</dim>
					<dim>68</dim>
				</port>
				<port id="1">
					<dim>1</dim>
					<dim>128</dim>
					<dim>40</dim>
					<dim>68</dim>
				</port>
			</input>
			<output>
				<port id="2">
					<dim>1</dim>
					<dim>128</dim>
					<dim>40</dim>
					<dim>68</dim>
				</port>
			</output>
		</layer>
		<layer id="161" name="bottleneck3_8/fn" precision="FP32" type="ReLU">
			<data negative_slope="0.10000000149011612"/>
			<input>
				<port id="0">
					<dim>1</dim>
					<dim>128</dim>
					<dim>40</dim>
					<dim>68</dim>
				</port>
			</input>
			<output>
				<port id="1">
					<dim>1</dim>
					<dim>128</dim>
					<dim>40</dim>
					<dim>68</dim>
				</port>
			</output>
		</layer>
		<layer id="162" name="bottleneck3_9/dim_red/conv" precision="FP32" type="Convolution">
			<data dilation-x="1" dilation-y="1" group="1" kernel-x="1" kernel-y="1" output="32" pad-b="0" pad-r="0" pad-x="0" pad-y="0" stride="1,1,1,1" stride-x="1" stride-y="1"/>
			<input>
				<port id="0">
					<dim>1</dim>
					<dim>128</dim>
					<dim>40</dim>
					<dim>68</dim>
				</port>
			</input>
			<output>
				<port id="3">
					<dim>1</dim>
					<dim>32</dim>
					<dim>40</dim>
					<dim>68</dim>
				</port>
			</output>
			<blobs>
				<weights offset="439768" size="16384"/>
				<biases offset="456152" size="128"/>
			</blobs>
		</layer>
		<layer id="163" name="bottleneck3_9/dim_red/fn" precision="FP32" type="ReLU">
			<data negative_slope="0.10000000149011612"/>
			<input>
				<port id="0">
					<dim>1</dim>
					<dim>32</dim>
					<dim>40</dim>
					<dim>68</dim>
				</port>
			</input>
			<output>
				<port id="1">
					<dim>1</dim>
					<dim>32</dim>
					<dim>40</dim>
					<dim>68</dim>
				</port>
			</output>
		</layer>
		<layer id="164" name="bottleneck3_9/inner/dw1/conv" precision="FP32" type="Convolution">
			<data dilation-x="1" dilation-y="1" group="32" kernel-x="3" kernel-y="3" output="32" pad-b="1" pad-r="1" pad-x="1" pad-y="1" stride="1,1,1,1" stride-x="1" stride-y="1"/>
			<input>
				<port id="0">
					<dim>1</dim>
					<dim>32</dim>
					<dim>40</dim>
					<dim>68</dim>
				</port>
			</input>
			<output>
				<port id="3">
					<dim>1</dim>
					<dim>32</dim>
					<dim>40</dim>
					<dim>68</dim>
				</port>
			</output>
			<blobs>
				<weights offset="456280" size="1152"/>
				<biases offset="457432" size="128"/>
			</blobs>
		</layer>
		<layer id="165" name="bottleneck3_9/inner/dw1/fn" precision="FP32" type="ReLU">
			<data negative_slope="0.10000000149011612"/>
			<input>
				<port id="0">
					<dim>1</dim>
					<dim>32</dim>
					<dim>40</dim>
					<dim>68</dim>
				</port>
			</input>
			<output>
				<port id="1">
					<dim>1</dim>
					<dim>32</dim>
					<dim>40</dim>
					<dim>68</dim>
				</port>
			</output>
		</layer>
		<layer id="166" name="bottleneck3_9/dim_inc/conv" precision="FP32" type="Convolution">
			<data dilation-x="1" dilation-y="1" group="1" kernel-x="1" kernel-y="1" output="128" pad-b="0" pad-r="0" pad-x="0" pad-y="0" stride="1,1,1,1" stride-x="1" stride-y="1"/>
			<input>
				<port id="0">
					<dim>1</dim>
					<dim>32</dim>
					<dim>40</dim>
					<dim>68</dim>
				</port>
			</input>
			<output>
				<port id="3">
					<dim>1</dim>
					<dim>128</dim>
					<dim>40</dim>
					<dim>68</dim>
				</port>
			</output>
			<blobs>
				<weights offset="457560" size="16384"/>
				<biases offset="473944" size="512"/>
			</blobs>
		</layer>
		<layer id="167" name="bottleneck3_9/add" precision="FP32" type="Eltwise">
			<data coeff="" operation="sum"/>
			<input>
				<port id="0">
					<dim>1</dim>
					<dim>128</dim>
					<dim>40</dim>
					<dim>68</dim>
				</port>
				<port id="1">
					<dim>1</dim>
					<dim>128</dim>
					<dim>40</dim>
					<dim>68</dim>
				</port>
			</input>
			<output>
				<port id="2">
					<dim>1</dim>
					<dim>128</dim>
					<dim>40</dim>
					<dim>68</dim>
				</port>
			</output>
		</layer>
		<layer id="168" name="bottleneck3_9/fn" precision="FP32" type="ReLU">
			<data negative_slope="0.10000000149011612"/>
			<input>
				<port id="0">
					<dim>1</dim>
					<dim>128</dim>
					<dim>40</dim>
					<dim>68</dim>
				</port>
			</input>
			<output>
				<port id="1">
					<dim>1</dim>
					<dim>128</dim>
					<dim>40</dim>
					<dim>68</dim>
				</port>
			</output>
		</layer>
		<layer id="169" name="bottleneck3_10/dim_red/conv" precision="FP32" type="Convolution">
			<data dilation-x="1" dilation-y="1" group="1" kernel-x="1" kernel-y="1" output="32" pad-b="0" pad-r="0" pad-x="0" pad-y="0" stride="1,1,1,1" stride-x="1" stride-y="1"/>
			<input>
				<port id="0">
					<dim>1</dim>
					<dim>128</dim>
					<dim>40</dim>
					<dim>68</dim>
				</port>
			</input>
			<output>
				<port id="3">
					<dim>1</dim>
					<dim>32</dim>
					<dim>40</dim>
					<dim>68</dim>
				</port>
			</output>
			<blobs>
				<weights offset="474456" size="16384"/>
				<biases offset="490840" size="128"/>
			</blobs>
		</layer>
		<layer id="170" name="bottleneck3_10/dim_red/fn" precision="FP32" type="ReLU">
			<data negative_slope="0.10000000149011612"/>
			<input>
				<port id="0">
					<dim>1</dim>
					<dim>32</dim>
					<dim>40</dim>
					<dim>68</dim>
				</port>
			</input>
			<output>
				<port id="1">
					<dim>1</dim>
					<dim>32</dim>
					<dim>40</dim>
					<dim>68</dim>
				</port>
			</output>
		</layer>
		<layer id="171" name="bottleneck3_10/inner/dw1/conv" precision="FP32" type="Convolution">
			<data dilation-x="1" dilation-y="1" group="32" kernel-x="3" kernel-y="3" output="32" pad-b="1" pad-r="1" pad-x="1" pad-y="1" stride="1,1,1,1" stride-x="1" stride-y="1"/>
			<input>
				<port id="0">
					<dim>1</dim>
					<dim>32</dim>
					<dim>40</dim>
					<dim>68</dim>
				</port>
			</input>
			<output>
				<port id="3">
					<dim>1</dim>
					<dim>32</dim>
					<dim>40</dim>
					<dim>68</dim>
				</port>
			</output>
			<blobs>
				<weights offset="490968" size="1152"/>
				<biases offset="492120" size="128"/>
			</blobs>
		</layer>
		<layer id="172" name="bottleneck3_10/inner/dw1/fn" precision="FP32" type="ReLU">
			<data negative_slope="0.10000000149011612"/>
			<input>
				<port id="0">
					<dim>1</dim>
					<dim>32</dim>
					<dim>40</dim>
					<dim>68</dim>
				</port>
			</input>
			<output>
				<port id="1">
					<dim>1</dim>
					<dim>32</dim>
					<dim>40</dim>
					<dim>68</dim>
				</port>
			</output>
		</layer>
		<layer id="173" name="bottleneck3_10/dim_inc/conv" precision="FP32" type="Convolution">
			<data dilation-x="1" dilation-y="1" group="1" kernel-x="1" kernel-y="1" output="128" pad-b="0" pad-r="0" pad-x="0" pad-y="0" stride="1,1,1,1" stride-x="1" stride-y="1"/>
			<input>
				<port id="0">
					<dim>1</dim>
					<dim>32</dim>
					<dim>40</dim>
					<dim>68</dim>
				</port>
			</input>
			<output>
				<port id="3">
					<dim>1</dim>
					<dim>128</dim>
					<dim>40</dim>
					<dim>68</dim>
				</port>
			</output>
			<blobs>
				<weights offset="492248" size="16384"/>
				<biases offset="508632" size="512"/>
			</blobs>
		</layer>
		<layer id="174" name="bottleneck3_10/add" precision="FP32" type="Eltwise">
			<data coeff="" operation="sum"/>
			<input>
				<port id="0">
					<dim>1</dim>
					<dim>128</dim>
					<dim>40</dim>
					<dim>68</dim>
				</port>
				<port id="1">
					<dim>1</dim>
					<dim>128</dim>
					<dim>40</dim>
					<dim>68</dim>
				</port>
			</input>
			<output>
				<port id="2">
					<dim>1</dim>
					<dim>128</dim>
					<dim>40</dim>
					<dim>68</dim>
				</port>
			</output>
		</layer>
		<layer id="175" name="bottleneck3_10/fn" precision="FP32" type="ReLU">
			<data negative_slope="0.10000000149011612"/>
			<input>
				<port id="0">
					<dim>1</dim>
					<dim>128</dim>
					<dim>40</dim>
					<dim>68</dim>
				</port>
			</input>
			<output>
				<port id="1">
					<dim>1</dim>
					<dim>128</dim>
					<dim>40</dim>
					<dim>68</dim>
				</port>
			</output>
		</layer>
		<layer id="176" name="bottleneck3_10/add/conv1x1" precision="FP32" type="Convolution">
			<data dilation-x="1" dilation-y="1" group="1" kernel-x="1" kernel-y="1" output="128" pad-b="0" pad-r="0" pad-x="0" pad-y="0" stride="1,1,1,1" stride-x="1" stride-y="1"/>
			<input>
				<port id="0">
					<dim>1</dim>
					<dim>128</dim>
					<dim>40</dim>
					<dim>68</dim>
				</port>
			</input>
			<output>
				<port id="3">
					<dim>1</dim>
					<dim>128</dim>
					<dim>40</dim>
					<dim>68</dim>
				</port>
			</output>
			<blobs>
				<weights offset="509144" size="65536"/>
				<biases offset="574680" size="512"/>
			</blobs>
		</layer>
		<layer id="177" name="bottleneck3_10/add/conv1x1_elu" precision="FP32" type="ReLU">
			<data negative_slope="0.10000000149011612"/>
			<input>
				<port id="0">
					<dim>1</dim>
					<dim>128</dim>
					<dim>40</dim>
					<dim>68</dim>
				</port>
			</input>
			<output>
				<port id="1">
					<dim>1</dim>
					<dim>128</dim>
					<dim>40</dim>
					<dim>68</dim>
				</port>
			</output>
		</layer>
		<layer id="178" name="ssd_mbox_loc_face" precision="FP32" type="Convolution">
			<data dilation-x="1" dilation-y="1" group="1" kernel-x="3" kernel-y="3" output="36" pad-b="1" pad-r="1" pad-x="1" pad-y="1" stride="1,1,1,1" stride-x="1" stride-y="1"/>
			<input>
				<port id="0">
					<dim>1</dim>
					<dim>128</dim>
					<dim>40</dim>
					<dim>68</dim>
				</port>
			</input>
			<output>
				<port id="3">
					<dim>1</dim>
					<dim>36</dim>
					<dim>40</dim>
					<dim>68</dim>
				</port>
			</output>
			<blobs>
				<weights offset="575192" size="165888"/>
				<biases offset="741080" size="144"/>
			</blobs>
		</layer>
		<layer id="179" name="ssd_mbox_loc_perm_face" precision="FP32" type="Permute">
			<data order="0,2,3,1"/>
			<input>
				<port id="0">
					<dim>1</dim>
					<dim>36</dim>
					<dim>40</dim>
					<dim>68</dim>
				</port>
			</input>
			<output>
				<port id="1">
					<dim>1</dim>
					<dim>40</dim>
					<dim>68</dim>
					<dim>36</dim>
				</port>
			</output>
		</layer>
		<layer id="180" name="ssd_mbox_loc_flat_face" precision="FP32" type="Flatten">
			<data axis="1"/>
			<input>
				<port id="0">
					<dim>1</dim>
					<dim>40</dim>
					<dim>68</dim>
					<dim>36</dim>
				</port>
			</input>
			<output>
				<port id="1">
					<dim>1</dim>
					<dim>97920</dim>
				</port>
			</output>
		</layer>
		<layer id="181" name="ssd_mbox_conf_face" precision="FP32" type="Convolution">
			<data dilation-x="1" dilation-y="1" group="1" kernel-x="3" kernel-y="3" output="27" pad-b="1" pad-r="1" pad-x="1" pad-y="1" stride="1,1,1,1" stride-x="1" stride-y="1"/>
			<input>
				<port id="0">
					<dim>1</dim>
					<dim>128</dim>
					<dim>40</dim>
					<dim>68</dim>
				</port>
			</input>
			<output>
				<port id="3">
					<dim>1</dim>
					<dim>27</dim>
					<dim>40</dim>
					<dim>68</dim>
				</port>
			</output>
			<blobs>
				<weights offset="741224" size="124416"/>
				<biases offset="865640" size="108"/>
			</blobs>
		</layer>
		<layer id="182" name="ssd_mbox_conf_perm_face" precision="FP32" type="Permute">
			<data order="0,2,3,1"/>
			<input>
				<port id="0">
					<dim>1</dim>
					<dim>27</dim>
					<dim>40</dim>
					<dim>68</dim>
				</port>
			</input>
			<output>
				<port id="1">
					<dim>1</dim>
					<dim>40</dim>
					<dim>68</dim>
					<dim>27</dim>
				</port>
			</output>
		</layer>
		<layer id="183" name="ssd_mbox_conf_perm_face_reshape" precision="FP32" type="Reshape">
			<data axis="0" dim="0,-1,3" num_axes="-1"/>
			<input>
				<port id="0">
					<dim>1</dim>
					<dim>40</dim>
					<dim>68</dim>
					<dim>27</dim>
				</port>
			</input>
			<output>
				<port id="1">
					<dim>1</dim>
					<dim>24480</dim>
					<dim>3</dim>
				</port>
			</output>
		</layer>
		<layer id="184" name="ssd_mbox_conf_perm_face_softmax" precision="FP32" type="SoftMax">
			<data axis="2"/>
			<input>
				<port id="0">
					<dim>1</dim>
					<dim>24480</dim>
					<dim>3</dim>
				</port>
			</input>
			<output>
				<port id="1">
					<dim>1</dim>
					<dim>24480</dim>
					<dim>3</dim>
				</port>
			</output>
		</layer>
		<layer id="185" name="ssd_mbox_conf_flat_face" precision="FP32" type="Flatten">
			<data axis="1"/>
			<input>
				<port id="0">
					<dim>1</dim>
					<dim>24480</dim>
					<dim>3</dim>
				</port>
			</input>
			<output>
				<port id="1">
					<dim>1</dim>
					<dim>73440</dim>
				</port>
			</output>
		</layer>
		<layer id="186" name="ssd_mbox_priorbox_face" precision="FP32" type="PriorBoxClustered">
			<data clip="0" flip="1" height="21.753999710083008,35.992000579833984,49.46900177001953,85.01000213623047,70.45899963378906,133.88499450683594,118.91600036621094,205.97900390625,197.42100524902344" offset="0.5" step="8.0" variance="0.10000000149011612,0.10000000149011612,0.20000000298023224,0.20000000298023224" width="21.878999710083008,34.42100143432617,57.02399826049805,69.00299835205078,121.34500122070312,109.8280029296875,205.1020050048828,169.08099365234375,304.7019958496094"/>
			<input>
				<port id="0">
					<dim>1</dim>
					<dim>128</dim>
					<dim>40</dim>
					<dim>68</dim>
				</port>
				<port id="1">
					<dim>1</dim>
					<dim>3</dim>
					<dim>320</dim>
					<dim>544</dim>
				</port>
			</input>
			<output>
				<port id="2">
					<dim>1</dim>
					<dim>2</dim>
					<dim>97920</dim>
				</port>
			</output>
		</layer>
		<layer id="187" name="detection_out_face" precision="FP32" type="DetectionOutput">
			<data background_label_id="0" code_type="caffe.PriorBoxParameter.CENTER_SIZE" confidence_threshold="0.009999999776482582" eta="1.0" input_height="-1" input_width="-1" keep_top_k="200" nms_threshold="0.44999998807907104" normalized="1" num_classes="3" share_location="1" top_k="400" variance_encoded_in_target="0" visualize="False"/>
			<input>
				<port id="0">
					<dim>1</dim>
					<dim>97920</dim>
				</port>
				<port id="1">
					<dim>1</dim>
					<dim>73440</dim>
				</port>
				<port id="2">
					<dim>1</dim>
					<dim>2</dim>
					<dim>97920</dim>
				</port>
			</input>
			<output>
				<port id="3">
					<dim>1</dim>
					<dim>1</dim>
					<dim>200</dim>
					<dim>7</dim>
				</port>
			</output>
		</layer>
		<layer id="188" name="bottleneck4_0/skip/pooling" precision="FP32" type="Pooling">
			<data exclude-pad="false" kernel-x="2" kernel-y="2" pad-b="0" pad-r="0" pad-x="0" pad-y="0" pool-method="max" rounding-type="ceil" stride="1,1,2,2" stride-x="2" stride-y="2"/>
			<input>
				<port id="0">
					<dim>1</dim>
					<dim>128</dim>
					<dim>40</dim>
					<dim>68</dim>
				</port>
			</input>
			<output>
				<port id="1">
					<dim>1</dim>
					<dim>128</dim>
					<dim>20</dim>
					<dim>34</dim>
				</port>
			</output>
		</layer>
		<layer id="189" name="bottleneck4_0/skip/conv" precision="FP32" type="Convolution">
			<data dilation-x="1" dilation-y="1" group="1" kernel-x="1" kernel-y="1" output="256" pad-b="0" pad-r="0" pad-x="0" pad-y="0" stride="1,1,1,1" stride-x="1" stride-y="1"/>
			<input>
				<port id="0">
					<dim>1</dim>
					<dim>128</dim>
					<dim>20</dim>
					<dim>34</dim>
				</port>
			</input>
			<output>
				<port id="3">
					<dim>1</dim>
					<dim>256</dim>
					<dim>20</dim>
					<dim>34</dim>
				</port>
			</output>
			<blobs>
				<weights offset="865748" size="131072"/>
				<biases offset="996820" size="1024"/>
			</blobs>
		</layer>
		<layer id="190" name="bottleneck4_0/dim_red/conv" precision="FP32" type="Convolution">
			<data dilation-x="1" dilation-y="1" group="1" kernel-x="1" kernel-y="1" output="64" pad-b="0" pad-r="0" pad-x="0" pad-y="0" stride="1,1,1,1" stride-x="1" stride-y="1"/>
			<input>
				<port id="0">
					<dim>1</dim>
					<dim>128</dim>
					<dim>40</dim>
					<dim>68</dim>
				</port>
			</input>
			<output>
				<port id="3">
					<dim>1</dim>
					<dim>64</dim>
					<dim>40</dim>
					<dim>68</dim>
				</port>
			</output>
			<blobs>
				<weights offset="997844" size="32768"/>
				<biases offset="1030612" size="256"/>
			</blobs>
		</layer>
		<layer id="191" name="bottleneck4_0/dim_red/fn" precision="FP32" type="ReLU">
			<data negative_slope="0.10000000149011612"/>
			<input>
				<port id="0">
					<dim>1</dim>
					<dim>64</dim>
					<dim>40</dim>
					<dim>68</dim>
				</port>
			</input>
			<output>
				<port id="1">
					<dim>1</dim>
					<dim>64</dim>
					<dim>40</dim>
					<dim>68</dim>
				</port>
			</output>
		</layer>
		<layer id="192" name="bottleneck4_0/inner/dw1/conv" precision="FP32" type="Convolution">
			<data dilation-x="1" dilation-y="1" group="64" kernel-x="3" kernel-y="3" output="64" pad-b="1" pad-r="1" pad-x="1" pad-y="1" stride="1,1,2,2" stride-x="2" stride-y="2"/>
			<input>
				<port id="0">
					<dim>1</dim>
					<dim>64</dim>
					<dim>40</dim>
					<dim>68</dim>
				</port>
			</input>
			<output>
				<port id="3">
					<dim>1</dim>
					<dim>64</dim>
					<dim>20</dim>
					<dim>34</dim>
				</port>
			</output>
			<blobs>
				<weights offset="1030868" size="2304"/>
				<biases offset="1033172" size="256"/>
			</blobs>
		</layer>
		<layer id="193" name="bottleneck4_0/inner/dw1/fn" precision="FP32" type="ReLU">
			<data negative_slope="0.10000000149011612"/>
			<input>
				<port id="0">
					<dim>1</dim>
					<dim>64</dim>
					<dim>20</dim>
					<dim>34</dim>
				</port>
			</input>
			<output>
				<port id="1">
					<dim>1</dim>
					<dim>64</dim>
					<dim>20</dim>
					<dim>34</dim>
				</port>
			</output>
		</layer>
		<layer id="194" name="bottleneck4_0/dim_inc/conv" precision="FP32" type="Convolution">
			<data dilation-x="1" dilation-y="1" group="1" kernel-x="1" kernel-y="1" output="256" pad-b="0" pad-r="0" pad-x="0" pad-y="0" stride="1,1,1,1" stride-x="1" stride-y="1"/>
			<input>
				<port id="0">
					<dim>1</dim>
					<dim>64</dim>
					<dim>20</dim>
					<dim>34</dim>
				</port>
			</input>
			<output>
				<port id="3">
					<dim>1</dim>
					<dim>256</dim>
					<dim>20</dim>
					<dim>34</dim>
				</port>
			</output>
			<blobs>
				<weights offset="1033428" size="65536"/>
				<biases offset="1098964" size="1024"/>
			</blobs>
		</layer>
		<layer id="195" name="bottleneck4_0/add" precision="FP32" type="Eltwise">
			<data coeff="" operation="sum"/>
			<input>
				<port id="0">
					<dim>1</dim>
					<dim>256</dim>
					<dim>20</dim>
					<dim>34</dim>
				</port>
				<port id="1">
					<dim>1</dim>
					<dim>256</dim>
					<dim>20</dim>
					<dim>34</dim>
				</port>
			</input>
			<output>
				<port id="2">
					<dim>1</dim>
					<dim>256</dim>
					<dim>20</dim>
					<dim>34</dim>
				</port>
			</output>
		</layer>
		<layer id="196" name="bottleneck4_0/fn" precision="FP32" type="ReLU">
			<data negative_slope="0.10000000149011612"/>
			<input>
				<port id="0">
					<dim>1</dim>
					<dim>256</dim>
					<dim>20</dim>
					<dim>34</dim>
				</port>
			</input>
			<output>
				<port id="1">
					<dim>1</dim>
					<dim>256</dim>
					<dim>20</dim>
					<dim>34</dim>
				</port>
			</output>
		</layer>
		<layer id="197" name="bottleneck4_1/dim_red/conv" precision="FP32" type="Convolution">
			<data dilation-x="1" dilation-y="1" group="1" kernel-x="1" kernel-y="1" output="64" pad-b="0" pad-r="0" pad-x="0" pad-y="0" stride="1,1,1,1" stride-x="1" stride-y="1"/>
			<input>
				<port id="0">
					<dim>1</dim>
					<dim>256</dim>
					<dim>20</dim>
					<dim>34</dim>
				</port>
			</input>
			<output>
				<port id="3">
					<dim>1</dim>
					<dim>64</dim>
					<dim>20</dim>
					<dim>34</dim>
				</port>
			</output>
			<blobs>
				<weights offset="1099988" size="65536"/>
				<biases offset="1165524" size="256"/>
			</blobs>
		</layer>
		<layer id="198" name="bottleneck4_1/dim_red/fn" precision="FP32" type="ReLU">
			<data negative_slope="0.10000000149011612"/>
			<input>
				<port id="0">
					<dim>1</dim>
					<dim>64</dim>
					<dim>20</dim>
					<dim>34</dim>
				</port>
			</input>
			<output>
				<port id="1">
					<dim>1</dim>
					<dim>64</dim>
					<dim>20</dim>
					<dim>34</dim>
				</port>
			</output>
		</layer>
		<layer id="199" name="bottleneck4_1/inner/dw1/conv" precision="FP32" type="Convolution">
			<data dilation-x="1" dilation-y="1" group="64" kernel-x="3" kernel-y="3" output="64" pad-b="1" pad-r="1" pad-x="1" pad-y="1" stride="1,1,1,1" stride-x="1" stride-y="1"/>
			<input>
				<port id="0">
					<dim>1</dim>
					<dim>64</dim>
					<dim>20</dim>
					<dim>34</dim>
				</port>
			</input>
			<output>
				<port id="3">
					<dim>1</dim>
					<dim>64</dim>
					<dim>20</dim>
					<dim>34</dim>
				</port>
			</output>
			<blobs>
				<weights offset="1165780" size="2304"/>
				<biases offset="1168084" size="256"/>
			</blobs>
		</layer>
		<layer id="200" name="bottleneck4_1/inner/dw1/fn" precision="FP32" type="ReLU">
			<data negative_slope="0.10000000149011612"/>
			<input>
				<port id="0">
					<dim>1</dim>
					<dim>64</dim>
					<dim>20</dim>
					<dim>34</dim>
				</port>
			</input>
			<output>
				<port id="1">
					<dim>1</dim>
					<dim>64</dim>
					<dim>20</dim>
					<dim>34</dim>
				</port>
			</output>
		</layer>
		<layer id="201" name="bottleneck4_1/dim_inc/conv" precision="FP32" type="Convolution">
			<data dilation-x="1" dilation-y="1" group="1" kernel-x="1" kernel-y="1" output="256" pad-b="0" pad-r="0" pad-x="0" pad-y="0" stride="1,1,1,1" stride-x="1" stride-y="1"/>
			<input>
				<port id="0">
					<dim>1</dim>
					<dim>64</dim>
					<dim>20</dim>
					<dim>34</dim>
				</port>
			</input>
			<output>
				<port id="3">
					<dim>1</dim>
					<dim>256</dim>
					<dim>20</dim>
					<dim>34</dim>
				</port>
			</output>
			<blobs>
				<weights offset="1168340" size="65536"/>
				<biases offset="1233876" size="1024"/>
			</blobs>
		</layer>
		<layer id="202" name="bottleneck4_1/add" precision="FP32" type="Eltwise">
			<data coeff="" operation="sum"/>
			<input>
				<port id="0">
					<dim>1</dim>
					<dim>256</dim>
					<dim>20</dim>
					<dim>34</dim>
				</port>
				<port id="1">
					<dim>1</dim>
					<dim>256</dim>
					<dim>20</dim>
					<dim>34</dim>
				</port>
			</input>
			<output>
				<port id="2">
					<dim>1</dim>
					<dim>256</dim>
					<dim>20</dim>
					<dim>34</dim>
				</port>
			</output>
		</layer>
		<layer id="203" name="bottleneck4_1/fn" precision="FP32" type="ReLU">
			<data negative_slope="0.10000000149011612"/>
			<input>
				<port id="0">
					<dim>1</dim>
					<dim>256</dim>
					<dim>20</dim>
					<dim>34</dim>
				</port>
			</input>
			<output>
				<port id="1">
					<dim>1</dim>
					<dim>256</dim>
					<dim>20</dim>
					<dim>34</dim>
				</port>
			</output>
		</layer>
		<layer id="204" name="bottleneck4_2/dim_red/conv" precision="FP32" type="Convolution">
			<data dilation-x="1" dilation-y="1" group="1" kernel-x="1" kernel-y="1" output="64" pad-b="0" pad-r="0" pad-x="0" pad-y="0" stride="1,1,1,1" stride-x="1" stride-y="1"/>
			<input>
				<port id="0">
					<dim>1</dim>
					<dim>256</dim>
					<dim>20</dim>
					<dim>34</dim>
				</port>
			</input>
			<output>
				<port id="3">
					<dim>1</dim>
					<dim>64</dim>
					<dim>20</dim>
					<dim>34</dim>
				</port>
			</output>
			<blobs>
				<weights offset="1234900" size="65536"/>
				<biases offset="1300436" size="256"/>
			</blobs>
		</layer>
		<layer id="205" name="bottleneck4_2/dim_red/fn" precision="FP32" type="ReLU">
			<data negative_slope="0.10000000149011612"/>
			<input>
				<port id="0">
					<dim>1</dim>
					<dim>64</dim>
					<dim>20</dim>
					<dim>34</dim>
				</port>
			</input>
			<output>
				<port id="1">
					<dim>1</dim>
					<dim>64</dim>
					<dim>20</dim>
					<dim>34</dim>
				</port>
			</output>
		</layer>
		<layer id="206" name="bottleneck4_2/inner/dw1/conv" precision="FP32" type="Convolution">
			<data dilation-x="1" dilation-y="1" group="64" kernel-x="3" kernel-y="3" output="64" pad-b="1" pad-r="1" pad-x="1" pad-y="1" stride="1,1,1,1" stride-x="1" stride-y="1"/>
			<input>
				<port id="0">
					<dim>1</dim>
					<dim>64</dim>
					<dim>20</dim>
					<dim>34</dim>
				</port>
			</input>
			<output>
				<port id="3">
					<dim>1</dim>
					<dim>64</dim>
					<dim>20</dim>
					<dim>34</dim>
				</port>
			</output>
			<blobs>
				<weights offset="1300692" size="2304"/>
				<biases offset="1302996" size="256"/>
			</blobs>
		</layer>
		<layer id="207" name="bottleneck4_2/inner/dw1/fn" precision="FP32" type="ReLU">
			<data negative_slope="0.10000000149011612"/>
			<input>
				<port id="0">
					<dim>1</dim>
					<dim>64</dim>
					<dim>20</dim>
					<dim>34</dim>
				</port>
			</input>
			<output>
				<port id="1">
					<dim>1</dim>
					<dim>64</dim>
					<dim>20</dim>
					<dim>34</dim>
				</port>
			</output>
		</layer>
		<layer id="208" name="bottleneck4_2/dim_inc/conv" precision="FP32" type="Convolution">
			<data dilation-x="1" dilation-y="1" group="1" kernel-x="1" kernel-y="1" output="256" pad-b="0" pad-r="0" pad-x="0" pad-y="0" stride="1,1,1,1" stride-x="1" stride-y="1"/>
			<input>
				<port id="0">
					<dim>1</dim>
					<dim>64</dim>
					<dim>20</dim>
					<dim>34</dim>
				</port>
			</input>
			<output>
				<port id="3">
					<dim>1</dim>
					<dim>256</dim>
					<dim>20</dim>
					<dim>34</dim>
				</port>
			</output>
			<blobs>
				<weights offset="1303252" size="65536"/>
				<biases offset="1368788" size="1024"/>
			</blobs>
		</layer>
		<layer id="209" name="bottleneck4_2/add" precision="FP32" type="Eltwise">
			<data coeff="" operation="sum"/>
			<input>
				<port id="0">
					<dim>1</dim>
					<dim>256</dim>
					<dim>20</dim>
					<dim>34</dim>
				</port>
				<port id="1">
					<dim>1</dim>
					<dim>256</dim>
					<dim>20</dim>
					<dim>34</dim>
				</port>
			</input>
			<output>
				<port id="2">
					<dim>1</dim>
					<dim>256</dim>
					<dim>20</dim>
					<dim>34</dim>
				</port>
			</output>
		</layer>
		<layer id="210" name="bottleneck4_2/fn" precision="FP32" type="ReLU">
			<data negative_slope="0.10000000149011612"/>
			<input>
				<port id="0">
					<dim>1</dim>
					<dim>256</dim>
					<dim>20</dim>
					<dim>34</dim>
				</port>
			</input>
			<output>
				<port id="1">
					<dim>1</dim>
					<dim>256</dim>
					<dim>20</dim>
					<dim>34</dim>
				</port>
			</output>
		</layer>
		<layer id="211" name="bottleneck4_3/dim_red/conv" precision="FP32" type="Convolution">
			<data dilation-x="1" dilation-y="1" group="1" kernel-x="1" kernel-y="1" output="64" pad-b="0" pad-r="0" pad-x="0" pad-y="0" stride="1,1,1,1" stride-x="1" stride-y="1"/>
			<input>
				<port id="0">
					<dim>1</dim>
					<dim>256</dim>
					<dim>20</dim>
					<dim>34</dim>
				</port>
			</input>
			<output>
				<port id="3">
					<dim>1</dim>
					<dim>64</dim>
					<dim>20</dim>
					<dim>34</dim>
				</port>
			</output>
			<blobs>
				<weights offset="1369812" size="65536"/>
				<biases offset="1435348" size="256"/>
			</blobs>
		</layer>
		<layer id="212" name="bottleneck4_3/dim_red/fn" precision="FP32" type="ReLU">
			<data negative_slope="0.10000000149011612"/>
			<input>
				<port id="0">
					<dim>1</dim>
					<dim>64</dim>
					<dim>20</dim>
					<dim>34</dim>
				</port>
			</input>
			<output>
				<port id="1">
					<dim>1</dim>
					<dim>64</dim>
					<dim>20</dim>
					<dim>34</dim>
				</port>
			</output>
		</layer>
		<layer id="213" name="bottleneck4_3/inner/dw1/conv" precision="FP32" type="Convolution">
			<data dilation-x="1" dilation-y="1" group="64" kernel-x="3" kernel-y="3" output="64" pad-b="1" pad-r="1" pad-x="1" pad-y="1" stride="1,1,1,1" stride-x="1" stride-y="1"/>
			<input>
				<port id="0">
					<dim>1</dim>
					<dim>64</dim>
					<dim>20</dim>
					<dim>34</dim>
				</port>
			</input>
			<output>
				<port id="3">
					<dim>1</dim>
					<dim>64</dim>
					<dim>20</dim>
					<dim>34</dim>
				</port>
			</output>
			<blobs>
				<weights offset="1435604" size="2304"/>
				<biases offset="1437908" size="256"/>
			</blobs>
		</layer>
		<layer id="214" name="bottleneck4_3/inner/dw1/fn" precision="FP32" type="ReLU">
			<data negative_slope="0.10000000149011612"/>
			<input>
				<port id="0">
					<dim>1</dim>
					<dim>64</dim>
					<dim>20</dim>
					<dim>34</dim>
				</port>
			</input>
			<output>
				<port id="1">
					<dim>1</dim>
					<dim>64</dim>
					<dim>20</dim>
					<dim>34</dim>
				</port>
			</output>
		</layer>
		<layer id="215" name="bottleneck4_3/dim_inc/conv" precision="FP32" type="Convolution">
			<data dilation-x="1" dilation-y="1" group="1" kernel-x="1" kernel-y="1" output="256" pad-b="0" pad-r="0" pad-x="0" pad-y="0" stride="1,1,1,1" stride-x="1" stride-y="1"/>
			<input>
				<port id="0">
					<dim>1</dim>
					<dim>64</dim>
					<dim>20</dim>
					<dim>34</dim>
				</port>
			</input>
			<output>
				<port id="3">
					<dim>1</dim>
					<dim>256</dim>
					<dim>20</dim>
					<dim>34</dim>
				</port>
			</output>
			<blobs>
				<weights offset="1438164" size="65536"/>
				<biases offset="1503700" size="1024"/>
			</blobs>
		</layer>
		<layer id="216" name="bottleneck4_3/add" precision="FP32" type="Eltwise">
			<data coeff="" operation="sum"/>
			<input>
				<port id="0">
					<dim>1</dim>
					<dim>256</dim>
					<dim>20</dim>
					<dim>34</dim>
				</port>
				<port id="1">
					<dim>1</dim>
					<dim>256</dim>
					<dim>20</dim>
					<dim>34</dim>
				</port>
			</input>
			<output>
				<port id="2">
					<dim>1</dim>
					<dim>256</dim>
					<dim>20</dim>
					<dim>34</dim>
				</port>
			</output>
		</layer>
		<layer id="217" name="bottleneck4_3/fn" precision="FP32" type="ReLU">
			<data negative_slope="0.10000000149011612"/>
			<input>
				<port id="0">
					<dim>1</dim>
					<dim>256</dim>
					<dim>20</dim>
					<dim>34</dim>
				</port>
			</input>
			<output>
				<port id="1">
					<dim>1</dim>
					<dim>256</dim>
					<dim>20</dim>
					<dim>34</dim>
				</port>
			</output>
		</layer>
		<layer id="218" name="bottleneck4_4/dim_red/conv" precision="FP32" type="Convolution">
			<data dilation-x="1" dilation-y="1" group="1" kernel-x="1" kernel-y="1" output="64" pad-b="0" pad-r="0" pad-x="0" pad-y="0" stride="1,1,1,1" stride-x="1" stride-y="1"/>
			<input>
				<port id="0">
					<dim>1</dim>
					<dim>256</dim>
					<dim>20</dim>
					<dim>34</dim>
				</port>
			</input>
			<output>
				<port id="3">
					<dim>1</dim>
					<dim>64</dim>
					<dim>20</dim>
					<dim>34</dim>
				</port>
			</output>
			<blobs>
				<weights offset="1504724" size="65536"/>
				<biases offset="1570260" size="256"/>
			</blobs>
		</layer>
		<layer id="219" name="bottleneck4_4/dim_red/fn" precision="FP32" type="ReLU">
			<data negative_slope="0.10000000149011612"/>
			<input>
				<port id="0">
					<dim>1</dim>
					<dim>64</dim>
					<dim>20</dim>
					<dim>34</dim>
				</port>
			</input>
			<output>
				<port id="1">
					<dim>1</dim>
					<dim>64</dim>
					<dim>20</dim>
					<dim>34</dim>
				</port>
			</output>
		</layer>
		<layer id="220" name="bottleneck4_4/inner/dw1/conv" precision="FP32" type="Convolution">
			<data dilation-x="1" dilation-y="1" group="64" kernel-x="3" kernel-y="3" output="64" pad-b="1" pad-r="1" pad-x="1" pad-y="1" stride="1,1,1,1" stride-x="1" stride-y="1"/>
			<input>
				<port id="0">
					<dim>1</dim>
					<dim>64</dim>
					<dim>20</dim>
					<dim>34</dim>
				</port>
			</input>
			<output>
				<port id="3">
					<dim>1</dim>
					<dim>64</dim>
					<dim>20</dim>
					<dim>34</dim>
				</port>
			</output>
			<blobs>
				<weights offset="1570516" size="2304"/>
				<biases offset="1572820" size="256"/>
			</blobs>
		</layer>
		<layer id="221" name="bottleneck4_4/inner/dw1/fn" precision="FP32" type="ReLU">
			<data negative_slope="0.10000000149011612"/>
			<input>
				<port id="0">
					<dim>1</dim>
					<dim>64</dim>
					<dim>20</dim>
					<dim>34</dim>
				</port>
			</input>
			<output>
				<port id="1">
					<dim>1</dim>
					<dim>64</dim>
					<dim>20</dim>
					<dim>34</dim>
				</port>
			</output>
		</layer>
		<layer id="222" name="bottleneck4_4/dim_inc/conv" precision="FP32" type="Convolution">
			<data dilation-x="1" dilation-y="1" group="1" kernel-x="1" kernel-y="1" output="256" pad-b="0" pad-r="0" pad-x="0" pad-y="0" stride="1,1,1,1" stride-x="1" stride-y="1"/>
			<input>
				<port id="0">
					<dim>1</dim>
					<dim>64</dim>
					<dim>20</dim>
					<dim>34</dim>
				</port>
			</input>
			<output>
				<port id="3">
					<dim>1</dim>
					<dim>256</dim>
					<dim>20</dim>
					<dim>34</dim>
				</port>
			</output>
			<blobs>
				<weights offset="1573076" size="65536"/>
				<biases offset="1638612" size="1024"/>
			</blobs>
		</layer>
		<layer id="223" name="bottleneck4_4/add" precision="FP32" type="Eltwise">
			<data coeff="" operation="sum"/>
			<input>
				<port id="0">
					<dim>1</dim>
					<dim>256</dim>
					<dim>20</dim>
					<dim>34</dim>
				</port>
				<port id="1">
					<dim>1</dim>
					<dim>256</dim>
					<dim>20</dim>
					<dim>34</dim>
				</port>
			</input>
			<output>
				<port id="2">
					<dim>1</dim>
					<dim>256</dim>
					<dim>20</dim>
					<dim>34</dim>
				</port>
			</output>
		</layer>
		<layer id="224" name="bottleneck4_4/fn" precision="FP32" type="ReLU">
			<data negative_slope="0.10000000149011612"/>
			<input>
				<port id="0">
					<dim>1</dim>
					<dim>256</dim>
					<dim>20</dim>
					<dim>34</dim>
				</port>
			</input>
			<output>
				<port id="1">
					<dim>1</dim>
					<dim>256</dim>
					<dim>20</dim>
					<dim>34</dim>
				</port>
			</output>
		</layer>
		<layer id="225" name="bottleneck4_5/dim_red/conv" precision="FP32" type="Convolution">
			<data dilation-x="1" dilation-y="1" group="1" kernel-x="1" kernel-y="1" output="64" pad-b="0" pad-r="0" pad-x="0" pad-y="0" stride="1,1,1,1" stride-x="1" stride-y="1"/>
			<input>
				<port id="0">
					<dim>1</dim>
					<dim>256</dim>
					<dim>20</dim>
					<dim>34</dim>
				</port>
			</input>
			<output>
				<port id="3">
					<dim>1</dim>
					<dim>64</dim>
					<dim>20</dim>
					<dim>34</dim>
				</port>
			</output>
			<blobs>
				<weights offset="1639636" size="65536"/>
				<biases offset="1705172" size="256"/>
			</blobs>
		</layer>
		<layer id="226" name="bottleneck4_5/dim_red/fn" precision="FP32" type="ReLU">
			<data negative_slope="0.10000000149011612"/>
			<input>
				<port id="0">
					<dim>1</dim>
					<dim>64</dim>
					<dim>20</dim>
					<dim>34</dim>
				</port>
			</input>
			<output>
				<port id="1">
					<dim>1</dim>
					<dim>64</dim>
					<dim>20</dim>
					<dim>34</dim>
				</port>
			</output>
		</layer>
		<layer id="227" name="bottleneck4_5/inner/dw1/conv" precision="FP32" type="Convolution">
			<data dilation-x="1" dilation-y="1" group="64" kernel-x="3" kernel-y="3" output="64" pad-b="1" pad-r="1" pad-x="1" pad-y="1" stride="1,1,1,1" stride-x="1" stride-y="1"/>
			<input>
				<port id="0">
					<dim>1</dim>
					<dim>64</dim>
					<dim>20</dim>
					<dim>34</dim>
				</port>
			</input>
			<output>
				<port id="3">
					<dim>1</dim>
					<dim>64</dim>
					<dim>20</dim>
					<dim>34</dim>
				</port>
			</output>
			<blobs>
				<weights offset="1705428" size="2304"/>
				<biases offset="1707732" size="256"/>
			</blobs>
		</layer>
		<layer id="228" name="bottleneck4_5/inner/dw1/fn" precision="FP32" type="ReLU">
			<data negative_slope="0.10000000149011612"/>
			<input>
				<port id="0">
					<dim>1</dim>
					<dim>64</dim>
					<dim>20</dim>
					<dim>34</dim>
				</port>
			</input>
			<output>
				<port id="1">
					<dim>1</dim>
					<dim>64</dim>
					<dim>20</dim>
					<dim>34</dim>
				</port>
			</output>
		</layer>
		<layer id="229" name="bottleneck4_5/dim_inc/conv" precision="FP32" type="Convolution">
			<data dilation-x="1" dilation-y="1" group="1" kernel-x="1" kernel-y="1" output="256" pad-b="0" pad-r="0" pad-x="0" pad-y="0" stride="1,1,1,1" stride-x="1" stride-y="1"/>
			<input>
				<port id="0">
					<dim>1</dim>
					<dim>64</dim>
					<dim>20</dim>
					<dim>34</dim>
				</port>
			</input>
			<output>
				<port id="3">
					<dim>1</dim>
					<dim>256</dim>
					<dim>20</dim>
					<dim>34</dim>
				</port>
			</output>
			<blobs>
				<weights offset="1707988" size="65536"/>
				<biases offset="1773524" size="1024"/>
			</blobs>
		</layer>
		<layer id="230" name="bottleneck4_5/add" precision="FP32" type="Eltwise">
			<data coeff="" operation="sum"/>
			<input>
				<port id="0">
					<dim>1</dim>
					<dim>256</dim>
					<dim>20</dim>
					<dim>34</dim>
				</port>
				<port id="1">
					<dim>1</dim>
					<dim>256</dim>
					<dim>20</dim>
					<dim>34</dim>
				</port>
			</input>
			<output>
				<port id="2">
					<dim>1</dim>
					<dim>256</dim>
					<dim>20</dim>
					<dim>34</dim>
				</port>
			</output>
		</layer>
		<layer id="231" name="bottleneck4_5/fn" precision="FP32" type="ReLU">
			<data negative_slope="0.10000000149011612"/>
			<input>
				<port id="0">
					<dim>1</dim>
					<dim>256</dim>
					<dim>20</dim>
					<dim>34</dim>
				</port>
			</input>
			<output>
				<port id="1">
					<dim>1</dim>
					<dim>256</dim>
					<dim>20</dim>
					<dim>34</dim>
				</port>
			</output>
		</layer>
		<layer id="232" name="bottleneck4_6/dim_red/conv" precision="FP32" type="Convolution">
			<data dilation-x="1" dilation-y="1" group="1" kernel-x="1" kernel-y="1" output="64" pad-b="0" pad-r="0" pad-x="0" pad-y="0" stride="1,1,1,1" stride-x="1" stride-y="1"/>
			<input>
				<port id="0">
					<dim>1</dim>
					<dim>256</dim>
					<dim>20</dim>
					<dim>34</dim>
				</port>
			</input>
			<output>
				<port id="3">
					<dim>1</dim>
					<dim>64</dim>
					<dim>20</dim>
					<dim>34</dim>
				</port>
			</output>
			<blobs>
				<weights offset="1774548" size="65536"/>
				<biases offset="1840084" size="256"/>
			</blobs>
		</layer>
		<layer id="233" name="bottleneck4_6/dim_red/fn" precision="FP32" type="ReLU">
			<data negative_slope="0.10000000149011612"/>
			<input>
				<port id="0">
					<dim>1</dim>
					<dim>64</dim>
					<dim>20</dim>
					<dim>34</dim>
				</port>
			</input>
			<output>
				<port id="1">
					<dim>1</dim>
					<dim>64</dim>
					<dim>20</dim>
					<dim>34</dim>
				</port>
			</output>
		</layer>
		<layer id="234" name="bottleneck4_6/inner/dw1/conv" precision="FP32" type="Convolution">
			<data dilation-x="1" dilation-y="1" group="64" kernel-x="3" kernel-y="3" output="64" pad-b="1" pad-r="1" pad-x="1" pad-y="1" stride="1,1,1,1" stride-x="1" stride-y="1"/>
			<input>
				<port id="0">
					<dim>1</dim>
					<dim>64</dim>
					<dim>20</dim>
					<dim>34</dim>
				</port>
			</input>
			<output>
				<port id="3">
					<dim>1</dim>
					<dim>64</dim>
					<dim>20</dim>
					<dim>34</dim>
				</port>
			</output>
			<blobs>
				<weights offset="1840340" size="2304"/>
				<biases offset="1842644" size="256"/>
			</blobs>
		</layer>
		<layer id="235" name="bottleneck4_6/inner/dw1/fn" precision="FP32" type="ReLU">
			<data negative_slope="0.10000000149011612"/>
			<input>
				<port id="0">
					<dim>1</dim>
					<dim>64</dim>
					<dim>20</dim>
					<dim>34</dim>
				</port>
			</input>
			<output>
				<port id="1">
					<dim>1</dim>
					<dim>64</dim>
					<dim>20</dim>
					<dim>34</dim>
				</port>
			</output>
		</layer>
		<layer id="236" name="bottleneck4_6/dim_inc/conv" precision="FP32" type="Convolution">
			<data dilation-x="1" dilation-y="1" group="1" kernel-x="1" kernel-y="1" output="256" pad-b="0" pad-r="0" pad-x="0" pad-y="0" stride="1,1,1,1" stride-x="1" stride-y="1"/>
			<input>
				<port id="0">
					<dim>1</dim>
					<dim>64</dim>
					<dim>20</dim>
					<dim>34</dim>
				</port>
			</input>
			<output>
				<port id="3">
					<dim>1</dim>
					<dim>256</dim>
					<dim>20</dim>
					<dim>34</dim>
				</port>
			</output>
			<blobs>
				<weights offset="1842900" size="65536"/>
				<biases offset="1908436" size="1024"/>
			</blobs>
		</layer>
		<layer id="237" name="bottleneck4_6/add" precision="FP32" type="Eltwise">
			<data coeff="" operation="sum"/>
			<input>
				<port id="0">
					<dim>1</dim>
					<dim>256</dim>
					<dim>20</dim>
					<dim>34</dim>
				</port>
				<port id="1">
					<dim>1</dim>
					<dim>256</dim>
					<dim>20</dim>
					<dim>34</dim>
				</port>
			</input>
			<output>
				<port id="2">
					<dim>1</dim>
					<dim>256</dim>
					<dim>20</dim>
					<dim>34</dim>
				</port>
			</output>
		</layer>
		<layer id="238" name="bottleneck4_6/fn" precision="FP32" type="ReLU">
			<data negative_slope="0.10000000149011612"/>
			<input>
				<port id="0">
					<dim>1</dim>
					<dim>256</dim>
					<dim>20</dim>
					<dim>34</dim>
				</port>
			</input>
			<output>
				<port id="1">
					<dim>1</dim>
					<dim>256</dim>
					<dim>20</dim>
					<dim>34</dim>
				</port>
			</output>
		</layer>
		<layer id="239" name="bottleneck4_7/dim_red/conv" precision="FP32" type="Convolution">
			<data dilation-x="1" dilation-y="1" group="1" kernel-x="1" kernel-y="1" output="64" pad-b="0" pad-r="0" pad-x="0" pad-y="0" stride="1,1,1,1" stride-x="1" stride-y="1"/>
			<input>
				<port id="0">
					<dim>1</dim>
					<dim>256</dim>
					<dim>20</dim>
					<dim>34</dim>
				</port>
			</input>
			<output>
				<port id="3">
					<dim>1</dim>
					<dim>64</dim>
					<dim>20</dim>
					<dim>34</dim>
				</port>
			</output>
			<blobs>
				<weights offset="1909460" size="65536"/>
				<biases offset="1974996" size="256"/>
			</blobs>
		</layer>
		<layer id="240" name="bottleneck4_7/dim_red/fn" precision="FP32" type="ReLU">
			<data negative_slope="0.10000000149011612"/>
			<input>
				<port id="0">
					<dim>1</dim>
					<dim>64</dim>
					<dim>20</dim>
					<dim>34</dim>
				</port>
			</input>
			<output>
				<port id="1">
					<dim>1</dim>
					<dim>64</dim>
					<dim>20</dim>
					<dim>34</dim>
				</port>
			</output>
		</layer>
		<layer id="241" name="bottleneck4_7/inner/dw1/conv" precision="FP32" type="Convolution">
			<data dilation-x="1" dilation-y="1" group="64" kernel-x="3" kernel-y="3" output="64" pad-b="1" pad-r="1" pad-x="1" pad-y="1" stride="1,1,1,1" stride-x="1" stride-y="1"/>
			<input>
				<port id="0">
					<dim>1</dim>
					<dim>64</dim>
					<dim>20</dim>
					<dim>34</dim>
				</port>
			</input>
			<output>
				<port id="3">
					<dim>1</dim>
					<dim>64</dim>
					<dim>20</dim>
					<dim>34</dim>
				</port>
			</output>
			<blobs>
				<weights offset="1975252" size="2304"/>
				<biases offset="1977556" size="256"/>
			</blobs>
		</layer>
		<layer id="242" name="bottleneck4_7/inner/dw1/fn" precision="FP32" type="ReLU">
			<data negative_slope="0.10000000149011612"/>
			<input>
				<port id="0">
					<dim>1</dim>
					<dim>64</dim>
					<dim>20</dim>
					<dim>34</dim>
				</port>
			</input>
			<output>
				<port id="1">
					<dim>1</dim>
					<dim>64</dim>
					<dim>20</dim>
					<dim>34</dim>
				</port>
			</output>
		</layer>
		<layer id="243" name="bottleneck4_7/dim_inc/conv" precision="FP32" type="Convolution">
			<data dilation-x="1" dilation-y="1" group="1" kernel-x="1" kernel-y="1" output="256" pad-b="0" pad-r="0" pad-x="0" pad-y="0" stride="1,1,1,1" stride-x="1" stride-y="1"/>
			<input>
				<port id="0">
					<dim>1</dim>
					<dim>64</dim>
					<dim>20</dim>
					<dim>34</dim>
				</port>
			</input>
			<output>
				<port id="3">
					<dim>1</dim>
					<dim>256</dim>
					<dim>20</dim>
					<dim>34</dim>
				</port>
			</output>
			<blobs>
				<weights offset="1977812" size="65536"/>
				<biases offset="2043348" size="1024"/>
			</blobs>
		</layer>
		<layer id="244" name="bottleneck4_7/add" precision="FP32" type="Eltwise">
			<data coeff="" operation="sum"/>
			<input>
				<port id="0">
					<dim>1</dim>
					<dim>256</dim>
					<dim>20</dim>
					<dim>34</dim>
				</port>
				<port id="1">
					<dim>1</dim>
					<dim>256</dim>
					<dim>20</dim>
					<dim>34</dim>
				</port>
			</input>
			<output>
				<port id="2">
					<dim>1</dim>
					<dim>256</dim>
					<dim>20</dim>
					<dim>34</dim>
				</port>
			</output>
		</layer>
		<layer id="245" name="bottleneck4_7/fn" precision="FP32" type="ReLU">
			<data negative_slope="0.10000000149011612"/>
			<input>
				<port id="0">
					<dim>1</dim>
					<dim>256</dim>
					<dim>20</dim>
					<dim>34</dim>
				</port>
			</input>
			<output>
				<port id="1">
					<dim>1</dim>
					<dim>256</dim>
					<dim>20</dim>
					<dim>34</dim>
				</port>
			</output>
		</layer>
		<layer id="246" name="bottleneck4_8/dim_red/conv" precision="FP32" type="Convolution">
			<data dilation-x="1" dilation-y="1" group="1" kernel-x="1" kernel-y="1" output="64" pad-b="0" pad-r="0" pad-x="0" pad-y="0" stride="1,1,1,1" stride-x="1" stride-y="1"/>
			<input>
				<port id="0">
					<dim>1</dim>
					<dim>256</dim>
					<dim>20</dim>
					<dim>34</dim>
				</port>
			</input>
			<output>
				<port id="3">
					<dim>1</dim>
					<dim>64</dim>
					<dim>20</dim>
					<dim>34</dim>
				</port>
			</output>
			<blobs>
				<weights offset="2044372" size="65536"/>
				<biases offset="2109908" size="256"/>
			</blobs>
		</layer>
		<layer id="247" name="bottleneck4_8/dim_red/fn" precision="FP32" type="ReLU">
			<data negative_slope="0.10000000149011612"/>
			<input>
				<port id="0">
					<dim>1</dim>
					<dim>64</dim>
					<dim>20</dim>
					<dim>34</dim>
				</port>
			</input>
			<output>
				<port id="1">
					<dim>1</dim>
					<dim>64</dim>
					<dim>20</dim>
					<dim>34</dim>
				</port>
			</output>
		</layer>
		<layer id="248" name="bottleneck4_8/inner/dw1/conv" precision="FP32" type="Convolution">
			<data dilation-x="1" dilation-y="1" group="64" kernel-x="3" kernel-y="3" output="64" pad-b="1" pad-r="1" pad-x="1" pad-y="1" stride="1,1,1,1" stride-x="1" stride-y="1"/>
			<input>
				<port id="0">
					<dim>1</dim>
					<dim>64</dim>
					<dim>20</dim>
					<dim>34</dim>
				</port>
			</input>
			<output>
				<port id="3">
					<dim>1</dim>
					<dim>64</dim>
					<dim>20</dim>
					<dim>34</dim>
				</port>
			</output>
			<blobs>
				<weights offset="2110164" size="2304"/>
				<biases offset="2112468" size="256"/>
			</blobs>
		</layer>
		<layer id="249" name="bottleneck4_8/inner/dw1/fn" precision="FP32" type="ReLU">
			<data negative_slope="0.10000000149011612"/>
			<input>
				<port id="0">
					<dim>1</dim>
					<dim>64</dim>
					<dim>20</dim>
					<dim>34</dim>
				</port>
			</input>
			<output>
				<port id="1">
					<dim>1</dim>
					<dim>64</dim>
					<dim>20</dim>
					<dim>34</dim>
				</port>
			</output>
		</layer>
		<layer id="250" name="bottleneck4_8/dim_inc/conv" precision="FP32" type="Convolution">
			<data dilation-x="1" dilation-y="1" group="1" kernel-x="1" kernel-y="1" output="256" pad-b="0" pad-r="0" pad-x="0" pad-y="0" stride="1,1,1,1" stride-x="1" stride-y="1"/>
			<input>
				<port id="0">
					<dim>1</dim>
					<dim>64</dim>
					<dim>20</dim>
					<dim>34</dim>
				</port>
			</input>
			<output>
				<port id="3">
					<dim>1</dim>
					<dim>256</dim>
					<dim>20</dim>
					<dim>34</dim>
				</port>
			</output>
			<blobs>
				<weights offset="2112724" size="65536"/>
				<biases offset="2178260" size="1024"/>
			</blobs>
		</layer>
		<layer id="251" name="bottleneck4_8/add" precision="FP32" type="Eltwise">
			<data coeff="" operation="sum"/>
			<input>
				<port id="0">
					<dim>1</dim>
					<dim>256</dim>
					<dim>20</dim>
					<dim>34</dim>
				</port>
				<port id="1">
					<dim>1</dim>
					<dim>256</dim>
					<dim>20</dim>
					<dim>34</dim>
				</port>
			</input>
			<output>
				<port id="2">
					<dim>1</dim>
					<dim>256</dim>
					<dim>20</dim>
					<dim>34</dim>
				</port>
			</output>
		</layer>
		<layer id="252" name="bottleneck4_8/fn" precision="FP32" type="ReLU">
			<data negative_slope="0.10000000149011612"/>
			<input>
				<port id="0">
					<dim>1</dim>
					<dim>256</dim>
					<dim>20</dim>
					<dim>34</dim>
				</port>
			</input>
			<output>
				<port id="1">
					<dim>1</dim>
					<dim>256</dim>
					<dim>20</dim>
					<dim>34</dim>
				</port>
			</output>
		</layer>
		<layer id="253" name="bottleneck4_9/dim_red/conv" precision="FP32" type="Convolution">
			<data dilation-x="1" dilation-y="1" group="1" kernel-x="1" kernel-y="1" output="64" pad-b="0" pad-r="0" pad-x="0" pad-y="0" stride="1,1,1,1" stride-x="1" stride-y="1"/>
			<input>
				<port id="0">
					<dim>1</dim>
					<dim>256</dim>
					<dim>20</dim>
					<dim>34</dim>
				</port>
			</input>
			<output>
				<port id="3">
					<dim>1</dim>
					<dim>64</dim>
					<dim>20</dim>
					<dim>34</dim>
				</port>
			</output>
			<blobs>
				<weights offset="2179284" size="65536"/>
				<biases offset="2244820" size="256"/>
			</blobs>
		</layer>
		<layer id="254" name="bottleneck4_9/dim_red/fn" precision="FP32" type="ReLU">
			<data negative_slope="0.10000000149011612"/>
			<input>
				<port id="0">
					<dim>1</dim>
					<dim>64</dim>
					<dim>20</dim>
					<dim>34</dim>
				</port>
			</input>
			<output>
				<port id="1">
					<dim>1</dim>
					<dim>64</dim>
					<dim>20</dim>
					<dim>34</dim>
				</port>
			</output>
		</layer>
		<layer id="255" name="bottleneck4_9/inner/dw1/conv" precision="FP32" type="Convolution">
			<data dilation-x="1" dilation-y="1" group="64" kernel-x="3" kernel-y="3" output="64" pad-b="1" pad-r="1" pad-x="1" pad-y="1" stride="1,1,1,1" stride-x="1" stride-y="1"/>
			<input>
				<port id="0">
					<dim>1</dim>
					<dim>64</dim>
					<dim>20</dim>
					<dim>34</dim>
				</port>
			</input>
			<output>
				<port id="3">
					<dim>1</dim>
					<dim>64</dim>
					<dim>20</dim>
					<dim>34</dim>
				</port>
			</output>
			<blobs>
				<weights offset="2245076" size="2304"/>
				<biases offset="2247380" size="256"/>
			</blobs>
		</layer>
		<layer id="256" name="bottleneck4_9/inner/dw1/fn" precision="FP32" type="ReLU">
			<data negative_slope="0.10000000149011612"/>
			<input>
				<port id="0">
					<dim>1</dim>
					<dim>64</dim>
					<dim>20</dim>
					<dim>34</dim>
				</port>
			</input>
			<output>
				<port id="1">
					<dim>1</dim>
					<dim>64</dim>
					<dim>20</dim>
					<dim>34</dim>
				</port>
			</output>
		</layer>
		<layer id="257" name="bottleneck4_9/dim_inc/conv" precision="FP32" type="Convolution">
			<data dilation-x="1" dilation-y="1" group="1" kernel-x="1" kernel-y="1" output="256" pad-b="0" pad-r="0" pad-x="0" pad-y="0" stride="1,1,1,1" stride-x="1" stride-y="1"/>
			<input>
				<port id="0">
					<dim>1</dim>
					<dim>64</dim>
					<dim>20</dim>
					<dim>34</dim>
				</port>
			</input>
			<output>
				<port id="3">
					<dim>1</dim>
					<dim>256</dim>
					<dim>20</dim>
					<dim>34</dim>
				</port>
			</output>
			<blobs>
				<weights offset="2247636" size="65536"/>
				<biases offset="2313172" size="1024"/>
			</blobs>
		</layer>
		<layer id="258" name="bottleneck4_9/add" precision="FP32" type="Eltwise">
			<data coeff="" operation="sum"/>
			<input>
				<port id="0">
					<dim>1</dim>
					<dim>256</dim>
					<dim>20</dim>
					<dim>34</dim>
				</port>
				<port id="1">
					<dim>1</dim>
					<dim>256</dim>
					<dim>20</dim>
					<dim>34</dim>
				</port>
			</input>
			<output>
				<port id="2">
					<dim>1</dim>
					<dim>256</dim>
					<dim>20</dim>
					<dim>34</dim>
				</port>
			</output>
		</layer>
		<layer id="259" name="bottleneck4_9/fn" precision="FP32" type="ReLU">
			<data negative_slope="0.10000000149011612"/>
			<input>
				<port id="0">
					<dim>1</dim>
					<dim>256</dim>
					<dim>20</dim>
					<dim>34</dim>
				</port>
			</input>
			<output>
				<port id="1">
					<dim>1</dim>
					<dim>256</dim>
					<dim>20</dim>
					<dim>34</dim>
				</port>
			</output>
		</layer>
		<layer id="260" name="bottleneck4_10/dim_red/conv" precision="FP32" type="Convolution">
			<data dilation-x="1" dilation-y="1" group="1" kernel-x="1" kernel-y="1" output="64" pad-b="0" pad-r="0" pad-x="0" pad-y="0" stride="1,1,1,1" stride-x="1" stride-y="1"/>
			<input>
				<port id="0">
					<dim>1</dim>
					<dim>256</dim>
					<dim>20</dim>
					<dim>34</dim>
				</port>
			</input>
			<output>
				<port id="3">
					<dim>1</dim>
					<dim>64</dim>
					<dim>20</dim>
					<dim>34</dim>
				</port>
			</output>
			<blobs>
				<weights offset="2314196" size="65536"/>
				<biases offset="2379732" size="256"/>
			</blobs>
		</layer>
		<layer id="261" name="bottleneck4_10/dim_red/fn" precision="FP32" type="ReLU">
			<data negative_slope="0.10000000149011612"/>
			<input>
				<port id="0">
					<dim>1</dim>
					<dim>64</dim>
					<dim>20</dim>
					<dim>34</dim>
				</port>
			</input>
			<output>
				<port id="1">
					<dim>1</dim>
					<dim>64</dim>
					<dim>20</dim>
					<dim>34</dim>
				</port>
			</output>
		</layer>
		<layer id="262" name="bottleneck4_10/inner/dw1/conv" precision="FP32" type="Convolution">
			<data dilation-x="1" dilation-y="1" group="64" kernel-x="3" kernel-y="3" output="64" pad-b="1" pad-r="1" pad-x="1" pad-y="1" stride="1,1,1,1" stride-x="1" stride-y="1"/>
			<input>
				<port id="0">
					<dim>1</dim>
					<dim>64</dim>
					<dim>20</dim>
					<dim>34</dim>
				</port>
			</input>
			<output>
				<port id="3">
					<dim>1</dim>
					<dim>64</dim>
					<dim>20</dim>
					<dim>34</dim>
				</port>
			</output>
			<blobs>
				<weights offset="2379988" size="2304"/>
				<biases offset="2382292" size="256"/>
			</blobs>
		</layer>
		<layer id="263" name="bottleneck4_10/inner/dw1/fn" precision="FP32" type="ReLU">
			<data negative_slope="0.10000000149011612"/>
			<input>
				<port id="0">
					<dim>1</dim>
					<dim>64</dim>
					<dim>20</dim>
					<dim>34</dim>
				</port>
			</input>
			<output>
				<port id="1">
					<dim>1</dim>
					<dim>64</dim>
					<dim>20</dim>
					<dim>34</dim>
				</port>
			</output>
		</layer>
		<layer id="264" name="bottleneck4_10/dim_inc/conv" precision="FP32" type="Convolution">
			<data dilation-x="1" dilation-y="1" group="1" kernel-x="1" kernel-y="1" output="256" pad-b="0" pad-r="0" pad-x="0" pad-y="0" stride="1,1,1,1" stride-x="1" stride-y="1"/>
			<input>
				<port id="0">
					<dim>1</dim>
					<dim>64</dim>
					<dim>20</dim>
					<dim>34</dim>
				</port>
			</input>
			<output>
				<port id="3">
					<dim>1</dim>
					<dim>256</dim>
					<dim>20</dim>
					<dim>34</dim>
				</port>
			</output>
			<blobs>
				<weights offset="2382548" size="65536"/>
				<biases offset="2448084" size="1024"/>
			</blobs>
		</layer>
		<layer id="265" name="bottleneck4_10/add" precision="FP32" type="Eltwise">
			<data coeff="" operation="sum"/>
			<input>
				<port id="0">
					<dim>1</dim>
					<dim>256</dim>
					<dim>20</dim>
					<dim>34</dim>
				</port>
				<port id="1">
					<dim>1</dim>
					<dim>256</dim>
					<dim>20</dim>
					<dim>34</dim>
				</port>
			</input>
			<output>
				<port id="2">
					<dim>1</dim>
					<dim>256</dim>
					<dim>20</dim>
					<dim>34</dim>
				</port>
			</output>
		</layer>
		<layer id="266" name="bottleneck4_10/fn" precision="FP32" type="ReLU">
			<data negative_slope="0.10000000149011612"/>
			<input>
				<port id="0">
					<dim>1</dim>
					<dim>256</dim>
					<dim>20</dim>
					<dim>34</dim>
				</port>
			</input>
			<output>
				<port id="1">
					<dim>1</dim>
					<dim>256</dim>
					<dim>20</dim>
					<dim>34</dim>
				</port>
			</output>
		</layer>
		<layer id="267" name="bottleneck4_11/dim_red/conv" precision="FP32" type="Convolution">
			<data dilation-x="1" dilation-y="1" group="1" kernel-x="1" kernel-y="1" output="64" pad-b="0" pad-r="0" pad-x="0" pad-y="0" stride="1,1,1,1" stride-x="1" stride-y="1"/>
			<input>
				<port id="0">
					<dim>1</dim>
					<dim>256</dim>
					<dim>20</dim>
					<dim>34</dim>
				</port>
			</input>
			<output>
				<port id="3">
					<dim>1</dim>
					<dim>64</dim>
					<dim>20</dim>
					<dim>34</dim>
				</port>
			</output>
			<blobs>
				<weights offset="2449108" size="65536"/>
				<biases offset="2514644" size="256"/>
			</blobs>
		</layer>
		<layer id="268" name="bottleneck4_11/dim_red/fn" precision="FP32" type="ReLU">
			<data negative_slope="0.10000000149011612"/>
			<input>
				<port id="0">
					<dim>1</dim>
					<dim>64</dim>
					<dim>20</dim>
					<dim>34</dim>
				</port>
			</input>
			<output>
				<port id="1">
					<dim>1</dim>
					<dim>64</dim>
					<dim>20</dim>
					<dim>34</dim>
				</port>
			</output>
		</layer>
		<layer id="269" name="bottleneck4_11/inner/dw1/conv" precision="FP32" type="Convolution">
			<data dilation-x="1" dilation-y="1" group="64" kernel-x="3" kernel-y="3" output="64" pad-b="1" pad-r="1" pad-x="1" pad-y="1" stride="1,1,1,1" stride-x="1" stride-y="1"/>
			<input>
				<port id="0">
					<dim>1</dim>
					<dim>64</dim>
					<dim>20</dim>
					<dim>34</dim>
				</port>
			</input>
			<output>
				<port id="3">
					<dim>1</dim>
					<dim>64</dim>
					<dim>20</dim>
					<dim>34</dim>
				</port>
			</output>
			<blobs>
				<weights offset="2514900" size="2304"/>
				<biases offset="2517204" size="256"/>
			</blobs>
		</layer>
		<layer id="270" name="bottleneck4_11/inner/dw1/fn" precision="FP32" type="ReLU">
			<data negative_slope="0.10000000149011612"/>
			<input>
				<port id="0">
					<dim>1</dim>
					<dim>64</dim>
					<dim>20</dim>
					<dim>34</dim>
				</port>
			</input>
			<output>
				<port id="1">
					<dim>1</dim>
					<dim>64</dim>
					<dim>20</dim>
					<dim>34</dim>
				</port>
			</output>
		</layer>
		<layer id="271" name="bottleneck4_11/dim_inc/conv" precision="FP32" type="Convolution">
			<data dilation-x="1" dilation-y="1" group="1" kernel-x="1" kernel-y="1" output="256" pad-b="0" pad-r="0" pad-x="0" pad-y="0" stride="1,1,1,1" stride-x="1" stride-y="1"/>
			<input>
				<port id="0">
					<dim>1</dim>
					<dim>64</dim>
					<dim>20</dim>
					<dim>34</dim>
				</port>
			</input>
			<output>
				<port id="3">
					<dim>1</dim>
					<dim>256</dim>
					<dim>20</dim>
					<dim>34</dim>
				</port>
			</output>
			<blobs>
				<weights offset="2517460" size="65536"/>
				<biases offset="2582996" size="1024"/>
			</blobs>
		</layer>
		<layer id="272" name="bottleneck4_11/add" precision="FP32" type="Eltwise">
			<data coeff="" operation="sum"/>
			<input>
				<port id="0">
					<dim>1</dim>
					<dim>256</dim>
					<dim>20</dim>
					<dim>34</dim>
				</port>
				<port id="1">
					<dim>1</dim>
					<dim>256</dim>
					<dim>20</dim>
					<dim>34</dim>
				</port>
			</input>
			<output>
				<port id="2">
					<dim>1</dim>
					<dim>256</dim>
					<dim>20</dim>
					<dim>34</dim>
				</port>
			</output>
		</layer>
		<layer id="273" name="bottleneck4_11/fn" precision="FP32" type="ReLU">
			<data negative_slope="0.10000000149011612"/>
			<input>
				<port id="0">
					<dim>1</dim>
					<dim>256</dim>
					<dim>20</dim>
					<dim>34</dim>
				</port>
			</input>
			<output>
				<port id="1">
					<dim>1</dim>
					<dim>256</dim>
					<dim>20</dim>
					<dim>34</dim>
				</port>
			</output>
		</layer>
		<layer id="274" name="ssd_mbox_loc_pedestrian" precision="FP32" type="Convolution">
			<data dilation-x="1" dilation-y="1" group="1" kernel-x="3" kernel-y="3" output="36" pad-b="1" pad-r="1" pad-x="1" pad-y="1" stride="1,1,1,1" stride-x="1" stride-y="1"/>
			<input>
				<port id="0">
					<dim>1</dim>
					<dim>256</dim>
					<dim>20</dim>
					<dim>34</dim>
				</port>
			</input>
			<output>
				<port id="3">
					<dim>1</dim>
					<dim>36</dim>
					<dim>20</dim>
					<dim>34</dim>
				</port>
			</output>
			<blobs>
				<weights offset="2584020" size="331776"/>
				<biases offset="2915796" size="144"/>
			</blobs>
		</layer>
		<layer id="275" name="ssd_mbox_loc_perm_pedestrian" precision="FP32" type="Permute">
			<data order="0,2,3,1"/>
			<input>
				<port id="0">
					<dim>1</dim>
					<dim>36</dim>
					<dim>20</dim>
					<dim>34</dim>
				</port>
			</input>
			<output>
				<port id="1">
					<dim>1</dim>
					<dim>20</dim>
					<dim>34</dim>
					<dim>36</dim>
				</port>
			</output>
		</layer>
		<layer id="276" name="ssd_mbox_loc_flat_pedestrian" precision="FP32" type="Flatten">
			<data axis="1"/>
			<input>
				<port id="0">
					<dim>1</dim>
					<dim>20</dim>
					<dim>34</dim>
					<dim>36</dim>
				</port>
			</input>
			<output>
				<port id="1">
					<dim>1</dim>
					<dim>24480</dim>
				</port>
			</output>
		</layer>
		<layer id="277" name="ssd_mbox_conf_fpedestrian" precision="FP32" type="Convolution">
			<data dilation-x="1" dilation-y="1" group="1" kernel-x="3" kernel-y="3" output="27" pad-b="1" pad-r="1" pad-x="1" pad-y="1" stride="1,1,1,1" stride-x="1" stride-y="1"/>
			<input>
				<port id="0">
					<dim>1</dim>
					<dim>256</dim>
					<dim>20</dim>
					<dim>34</dim>
				</port>
			</input>
			<output>
				<port id="3">
					<dim>1</dim>
					<dim>27</dim>
					<dim>20</dim>
					<dim>34</dim>
				</port>
			</output>
			<blobs>
				<weights offset="2915940" size="248832"/>
				<biases offset="3164772" size="108"/>
			</blobs>
		</layer>
		<layer id="278" name="ssd_mbox_conf_perm_pedestrian" precision="FP32" type="Permute">
			<data order="0,2,3,1"/>
			<input>
				<port id="0">
					<dim>1</dim>
					<dim>27</dim>
					<dim>20</dim>
					<dim>34</dim>
				</port>
			</input>
			<output>
				<port id="1">
					<dim>1</dim>
					<dim>20</dim>
					<dim>34</dim>
					<dim>27</dim>
				</port>
			</output>
		</layer>
		<layer id="279" name="ssd_mbox_conf_perm_pedestrian_reshape" precision="FP32" type="Reshape">
			<data axis="0" dim="0,-1,3" num_axes="-1"/>
			<input>
				<port id="0">
					<dim>1</dim>
					<dim>20</dim>
					<dim>34</dim>
					<dim>27</dim>
				</port>
			</input>
			<output>
				<port id="1">
					<dim>1</dim>
					<dim>6120</dim>
					<dim>3</dim>
				</port>
			</output>
		</layer>
		<layer id="280" name="ssd_mbox_conf_perm_pedestrian_softmax" precision="FP32" type="SoftMax">
			<data axis="2"/>
			<input>
				<port id="0">
					<dim>1</dim>
					<dim>6120</dim>
					<dim>3</dim>
				</port>
			</input>
			<output>
				<port id="1">
					<dim>1</dim>
					<dim>6120</dim>
					<dim>3</dim>
				</port>
			</output>
		</layer>
		<layer id="281" name="ssd_mbox_conf_flat_pedestrian" precision="FP32" type="Flatten">
			<data axis="1"/>
			<input>
				<port id="0">
					<dim>1</dim>
					<dim>6120</dim>
					<dim>3</dim>
				</port>
			</input>
			<output>
				<port id="1">
					<dim>1</dim>
					<dim>18360</dim>
				</port>
			</output>
		</layer>
		<layer id="282" name="ssd_mbox_priorbox_pedestrian" precision="FP32" type="PriorBoxClustered">
			<data clip="0" flip="1" height="41.52899932861328,20.43000030517578,60.08399963378906,82.10299682617188,104.23500061035156,154.48399353027344,199.75999450683594,177.7519989013672,185.70899963378906" offset="0.5" step="16.0" variance="0.10000000149011612,0.10000000149011612,0.20000000298023224,0.20000000298023224" width="15.944000244140625,42.91299819946289,22.81800079345703,29.70199966430664,38.07600021362305,53.917999267578125,81.25800323486328,151.57200622558594,235.51800537109375"/>
			<input>
				<port id="0">
					<dim>1</dim>
					<dim>256</dim>
					<dim>20</dim>
					<dim>34</dim>
				</port>
				<port id="1">
					<dim>1</dim>
					<dim>3</dim>
					<dim>320</dim>
					<dim>544</dim>
				</port>
			</input>
			<output>
				<port id="2">
					<dim>1</dim>
					<dim>2</dim>
					<dim>24480</dim>
				</port>
			</output>
		</layer>
		<layer id="283" name="detection_out_pedestrian" precision="FP32" type="DetectionOutput">
			<data background_label_id="0" code_type="caffe.PriorBoxParameter.CENTER_SIZE" confidence_threshold="0.009999999776482582" eta="1.0" input_height="-1" input_width="-1" keep_top_k="200" nms_threshold="0.44999998807907104" normalized="1" num_classes="3" share_location="1" top_k="400" variance_encoded_in_target="0" visualize="False"/>
			<input>
				<port id="0">
					<dim>1</dim>
					<dim>24480</dim>
				</port>
				<port id="1">
					<dim>1</dim>
					<dim>18360</dim>
				</port>
				<port id="2">
					<dim>1</dim>
					<dim>2</dim>
					<dim>24480</dim>
				</port>
			</input>
			<output>
				<port id="3">
					<dim>1</dim>
					<dim>1</dim>
					<dim>200</dim>
					<dim>7</dim>
				</port>
			</output>
		</layer>
	</layers>
	<edges>
		<edge from-layer="0" from-port="0" to-layer="1" to-port="0"/>
		<edge from-layer="1" from-port="3" to-layer="2" to-port="0"/>
		<edge from-layer="2" from-port="3" to-layer="3" to-port="0"/>
		<edge from-layer="3" from-port="1" to-layer="4" to-port="0"/>
		<edge from-layer="4" from-port="3" to-layer="5" to-port="0"/>
		<edge from-layer="5" from-port="1" to-layer="6" to-port="0"/>
		<edge from-layer="6" from-port="3" to-layer="7" to-port="0"/>
		<edge from-layer="7" from-port="1" to-layer="8" to-port="0"/>
		<edge from-layer="3" from-port="1" to-layer="9" to-port="0"/>
		<edge from-layer="8" from-port="3" to-layer="9" to-port="1"/>
		<edge from-layer="9" from-port="2" to-layer="10" to-port="0"/>
		<edge from-layer="10" from-port="1" to-layer="11" to-port="0"/>
		<edge from-layer="11" from-port="3" to-layer="12" to-port="0"/>
		<edge from-layer="12" from-port="1" to-layer="13" to-port="0"/>
		<edge from-layer="13" from-port="3" to-layer="14" to-port="0"/>
		<edge from-layer="14" from-port="1" to-layer="15" to-port="0"/>
		<edge from-layer="10" from-port="1" to-layer="16" to-port="0"/>
		<edge from-layer="15" from-port="3" to-layer="16" to-port="1"/>
		<edge from-layer="16" from-port="2" to-layer="17" to-port="0"/>
		<edge from-layer="17" from-port="1" to-layer="18" to-port="0"/>
		<edge from-layer="18" from-port="3" to-layer="19" to-port="0"/>
		<edge from-layer="19" from-port="1" to-layer="20" to-port="0"/>
		<edge from-layer="20" from-port="3" to-layer="21" to-port="0"/>
		<edge from-layer="21" from-port="1" to-layer="22" to-port="0"/>
		<edge from-layer="17" from-port="1" to-layer="23" to-port="0"/>
		<edge from-layer="22" from-port="3" to-layer="23" to-port="1"/>
		<edge from-layer="23" from-port="2" to-layer="24" to-port="0"/>
		<edge from-layer="24" from-port="1" to-layer="25" to-port="0"/>
		<edge from-layer="25" from-port="3" to-layer="26" to-port="0"/>
		<edge from-layer="26" from-port="1" to-layer="27" to-port="0"/>
		<edge from-layer="27" from-port="3" to-layer="28" to-port="0"/>
		<edge from-layer="28" from-port="1" to-layer="29" to-port="0"/>
		<edge from-layer="24" from-port="1" to-layer="30" to-port="0"/>
		<edge from-layer="29" from-port="3" to-layer="30" to-port="1"/>
		<edge from-layer="30" from-port="2" to-layer="31" to-port="0"/>
		<edge from-layer="31" from-port="1" to-layer="32" to-port="0"/>
		<edge from-layer="32" from-port="1" to-layer="33" to-port="0"/>
		<edge from-layer="31" from-port="1" to-layer="34" to-port="0"/>
		<edge from-layer="34" from-port="3" to-layer="35" to-port="0"/>
		<edge from-layer="35" from-port="1" to-layer="36" to-port="0"/>
		<edge from-layer="36" from-port="3" to-layer="37" to-port="0"/>
		<edge from-layer="37" from-port="1" to-layer="38" to-port="0"/>
		<edge from-layer="33" from-port="3" to-layer="39" to-port="0"/>
		<edge from-layer="38" from-port="3" to-layer="39" to-port="1"/>
		<edge from-layer="39" from-port="2" to-layer="40" to-port="0"/>
		<edge from-layer="40" from-port="1" to-layer="41" to-port="0"/>
		<edge from-layer="41" from-port="3" to-layer="42" to-port="0"/>
		<edge from-layer="42" from-port="1" to-layer="43" to-port="0"/>
		<edge from-layer="43" from-port="3" to-layer="44" to-port="0"/>
		<edge from-layer="44" from-port="1" to-layer="45" to-port="0"/>
		<edge from-layer="40" from-port="1" to-layer="46" to-port="0"/>
		<edge from-layer="45" from-port="3" to-layer="46" to-port="1"/>
		<edge from-layer="46" from-port="2" to-layer="47" to-port="0"/>
		<edge from-layer="47" from-port="1" to-layer="48" to-port="0"/>
		<edge from-layer="48" from-port="3" to-layer="49" to-port="0"/>
		<edge from-layer="49" from-port="1" to-layer="50" to-port="0"/>
		<edge from-layer="50" from-port="3" to-layer="51" to-port="0"/>
		<edge from-layer="51" from-port="1" to-layer="52" to-port="0"/>
		<edge from-layer="47" from-port="1" to-layer="53" to-port="0"/>
		<edge from-layer="52" from-port="3" to-layer="53" to-port="1"/>
		<edge from-layer="53" from-port="2" to-layer="54" to-port="0"/>
		<edge from-layer="54" from-port="1" to-layer="55" to-port="0"/>
		<edge from-layer="55" from-port="3" to-layer="56" to-port="0"/>
		<edge from-layer="56" from-port="1" to-layer="57" to-port="0"/>
		<edge from-layer="57" from-port="3" to-layer="58" to-port="0"/>
		<edge from-layer="58" from-port="1" to-layer="59" to-port="0"/>
		<edge from-layer="54" from-port="1" to-layer="60" to-port="0"/>
		<edge from-layer="59" from-port="3" to-layer="60" to-port="1"/>
		<edge from-layer="60" from-port="2" to-layer="61" to-port="0"/>
		<edge from-layer="61" from-port="1" to-layer="62" to-port="0"/>
		<edge from-layer="62" from-port="3" to-layer="63" to-port="0"/>
		<edge from-layer="63" from-port="1" to-layer="64" to-port="0"/>
		<edge from-layer="64" from-port="3" to-layer="65" to-port="0"/>
		<edge from-layer="65" from-port="1" to-layer="66" to-port="0"/>
		<edge from-layer="61" from-port="1" to-layer="67" to-port="0"/>
		<edge from-layer="66" from-port="3" to-layer="67" to-port="1"/>
		<edge from-layer="67" from-port="2" to-layer="68" to-port="0"/>
		<edge from-layer="68" from-port="1" to-layer="69" to-port="0"/>
		<edge from-layer="69" from-port="3" to-layer="70" to-port="0"/>
		<edge from-layer="70" from-port="1" to-layer="71" to-port="0"/>
		<edge from-layer="71" from-port="3" to-layer="72" to-port="0"/>
		<edge from-layer="72" from-port="1" to-layer="73" to-port="0"/>
		<edge from-layer="68" from-port="1" to-layer="74" to-port="0"/>
		<edge from-layer="73" from-port="3" to-layer="74" to-port="1"/>
		<edge from-layer="74" from-port="2" to-layer="75" to-port="0"/>
		<edge from-layer="75" from-port="1" to-layer="76" to-port="0"/>
		<edge from-layer="76" from-port="3" to-layer="77" to-port="0"/>
		<edge from-layer="77" from-port="1" to-layer="78" to-port="0"/>
		<edge from-layer="78" from-port="3" to-layer="79" to-port="0"/>
		<edge from-layer="79" from-port="1" to-layer="80" to-port="0"/>
		<edge from-layer="75" from-port="1" to-layer="81" to-port="0"/>
		<edge from-layer="80" from-port="3" to-layer="81" to-port="1"/>
		<edge from-layer="81" from-port="2" to-layer="82" to-port="0"/>
		<edge from-layer="82" from-port="1" to-layer="83" to-port="0"/>
		<edge from-layer="83" from-port="3" to-layer="84" to-port="0"/>
		<edge from-layer="84" from-port="1" to-layer="85" to-port="0"/>
		<edge from-layer="85" from-port="3" to-layer="86" to-port="0"/>
		<edge from-layer="86" from-port="1" to-layer="87" to-port="0"/>
		<edge from-layer="82" from-port="1" to-layer="88" to-port="0"/>
		<edge from-layer="87" from-port="3" to-layer="88" to-port="1"/>
		<edge from-layer="88" from-port="2" to-layer="89" to-port="0"/>
		<edge from-layer="89" from-port="1" to-layer="90" to-port="0"/>
		<edge from-layer="90" from-port="3" to-layer="91" to-port="0"/>
		<edge from-layer="91" from-port="1" to-layer="92" to-port="0"/>
		<edge from-layer="92" from-port="3" to-layer="93" to-port="0"/>
		<edge from-layer="93" from-port="1" to-layer="94" to-port="0"/>
		<edge from-layer="89" from-port="1" to-layer="95" to-port="0"/>
		<edge from-layer="94" from-port="3" to-layer="95" to-port="1"/>
		<edge from-layer="95" from-port="2" to-layer="96" to-port="0"/>
		<edge from-layer="96" from-port="1" to-layer="97" to-port="0"/>
		<edge from-layer="97" from-port="1" to-layer="98" to-port="0"/>
		<edge from-layer="96" from-port="1" to-layer="99" to-port="0"/>
		<edge from-layer="99" from-port="3" to-layer="100" to-port="0"/>
		<edge from-layer="100" from-port="1" to-layer="101" to-port="0"/>
		<edge from-layer="101" from-port="3" to-layer="102" to-port="0"/>
		<edge from-layer="102" from-port="1" to-layer="103" to-port="0"/>
		<edge from-layer="98" from-port="3" to-layer="104" to-port="0"/>
		<edge from-layer="103" from-port="3" to-layer="104" to-port="1"/>
		<edge from-layer="104" from-port="2" to-layer="105" to-port="0"/>
		<edge from-layer="105" from-port="1" to-layer="106" to-port="0"/>
		<edge from-layer="106" from-port="3" to-layer="107" to-port="0"/>
		<edge from-layer="107" from-port="1" to-layer="108" to-port="0"/>
		<edge from-layer="108" from-port="3" to-layer="109" to-port="0"/>
		<edge from-layer="109" from-port="1" to-layer="110" to-port="0"/>
		<edge from-layer="105" from-port="1" to-layer="111" to-port="0"/>
		<edge from-layer="110" from-port="3" to-layer="111" to-port="1"/>
		<edge from-layer="111" from-port="2" to-layer="112" to-port="0"/>
		<edge from-layer="112" from-port="1" to-layer="113" to-port="0"/>
		<edge from-layer="113" from-port="3" to-layer="114" to-port="0"/>
		<edge from-layer="114" from-port="1" to-layer="115" to-port="0"/>
		<edge from-layer="115" from-port="3" to-layer="116" to-port="0"/>
		<edge from-layer="116" from-port="1" to-layer="117" to-port="0"/>
		<edge from-layer="112" from-port="1" to-layer="118" to-port="0"/>
		<edge from-layer="117" from-port="3" to-layer="118" to-port="1"/>
		<edge from-layer="118" from-port="2" to-layer="119" to-port="0"/>
		<edge from-layer="119" from-port="1" to-layer="120" to-port="0"/>
		<edge from-layer="120" from-port="3" to-layer="121" to-port="0"/>
		<edge from-layer="121" from-port="1" to-layer="122" to-port="0"/>
		<edge from-layer="122" from-port="3" to-layer="123" to-port="0"/>
		<edge from-layer="123" from-port="1" to-layer="124" to-port="0"/>
		<edge from-layer="119" from-port="1" to-layer="125" to-port="0"/>
		<edge from-layer="124" from-port="3" to-layer="125" to-port="1"/>
		<edge from-layer="125" from-port="2" to-layer="126" to-port="0"/>
		<edge from-layer="126" from-port="1" to-layer="127" to-port="0"/>
		<edge from-layer="127" from-port="3" to-layer="128" to-port="0"/>
		<edge from-layer="128" from-port="1" to-layer="129" to-port="0"/>
		<edge from-layer="129" from-port="3" to-layer="130" to-port="0"/>
		<edge from-layer="130" from-port="1" to-layer="131" to-port="0"/>
		<edge from-layer="126" from-port="1" to-layer="132" to-port="0"/>
		<edge from-layer="131" from-port="3" to-layer="132" to-port="1"/>
		<edge from-layer="132" from-port="2" to-layer="133" to-port="0"/>
		<edge from-layer="133" from-port="1" to-layer="134" to-port="0"/>
		<edge from-layer="134" from-port="3" to-layer="135" to-port="0"/>
		<edge from-layer="135" from-port="1" to-layer="136" to-port="0"/>
		<edge from-layer="136" from-port="3" to-layer="137" to-port="0"/>
		<edge from-layer="137" from-port="1" to-layer="138" to-port="0"/>
		<edge from-layer="133" from-port="1" to-layer="139" to-port="0"/>
		<edge from-layer="138" from-port="3" to-layer="139" to-port="1"/>
		<edge from-layer="139" from-port="2" to-layer="140" to-port="0"/>
		<edge from-layer="140" from-port="1" to-layer="141" to-port="0"/>
		<edge from-layer="141" from-port="3" to-layer="142" to-port="0"/>
		<edge from-layer="142" from-port="1" to-layer="143" to-port="0"/>
		<edge from-layer="143" from-port="3" to-layer="144" to-port="0"/>
		<edge from-layer="144" from-port="1" to-layer="145" to-port="0"/>
		<edge from-layer="140" from-port="1" to-layer="146" to-port="0"/>
		<edge from-layer="145" from-port="3" to-layer="146" to-port="1"/>
		<edge from-layer="146" from-port="2" to-layer="147" to-port="0"/>
		<edge from-layer="147" from-port="1" to-layer="148" to-port="0"/>
		<edge from-layer="148" from-port="3" to-layer="149" to-port="0"/>
		<edge from-layer="149" from-port="1" to-layer="150" to-port="0"/>
		<edge from-layer="150" from-port="3" to-layer="151" to-port="0"/>
		<edge from-layer="151" from-port="1" to-layer="152" to-port="0"/>
		<edge from-layer="147" from-port="1" to-layer="153" to-port="0"/>
		<edge from-layer="152" from-port="3" to-layer="153" to-port="1"/>
		<edge from-layer="153" from-port="2" to-layer="154" to-port="0"/>
		<edge from-layer="154" from-port="1" to-layer="155" to-port="0"/>
		<edge from-layer="155" from-port="3" to-layer="156" to-port="0"/>
		<edge from-layer="156" from-port="1" to-layer="157" to-port="0"/>
		<edge from-layer="157" from-port="3" to-layer="158" to-port="0"/>
		<edge from-layer="158" from-port="1" to-layer="159" to-port="0"/>
		<edge from-layer="154" from-port="1" to-layer="160" to-port="0"/>
		<edge from-layer="159" from-port="3" to-layer="160" to-port="1"/>
		<edge from-layer="160" from-port="2" to-layer="161" to-port="0"/>
		<edge from-layer="161" from-port="1" to-layer="162" to-port="0"/>
		<edge from-layer="162" from-port="3" to-layer="163" to-port="0"/>
		<edge from-layer="163" from-port="1" to-layer="164" to-port="0"/>
		<edge from-layer="164" from-port="3" to-layer="165" to-port="0"/>
		<edge from-layer="165" from-port="1" to-layer="166" to-port="0"/>
		<edge from-layer="161" from-port="1" to-layer="167" to-port="0"/>
		<edge from-layer="166" from-port="3" to-layer="167" to-port="1"/>
		<edge from-layer="167" from-port="2" to-layer="168" to-port="0"/>
		<edge from-layer="168" from-port="1" to-layer="169" to-port="0"/>
		<edge from-layer="169" from-port="3" to-layer="170" to-port="0"/>
		<edge from-layer="170" from-port="1" to-layer="171" to-port="0"/>
		<edge from-layer="171" from-port="3" to-layer="172" to-port="0"/>
		<edge from-layer="172" from-port="1" to-layer="173" to-port="0"/>
		<edge from-layer="168" from-port="1" to-layer="174" to-port="0"/>
		<edge from-layer="173" from-port="3" to-layer="174" to-port="1"/>
		<edge from-layer="174" from-port="2" to-layer="175" to-port="0"/>
		<edge from-layer="175" from-port="1" to-layer="176" to-port="0"/>
		<edge from-layer="176" from-port="3" to-layer="177" to-port="0"/>
		<edge from-layer="177" from-port="1" to-layer="178" to-port="0"/>
		<edge from-layer="178" from-port="3" to-layer="179" to-port="0"/>
		<edge from-layer="179" from-port="1" to-layer="180" to-port="0"/>
		<edge from-layer="177" from-port="1" to-layer="181" to-port="0"/>
		<edge from-layer="181" from-port="3" to-layer="182" to-port="0"/>
		<edge from-layer="182" from-port="1" to-layer="183" to-port="0"/>
		<edge from-layer="183" from-port="1" to-layer="184" to-port="0"/>
		<edge from-layer="184" from-port="1" to-layer="185" to-port="0"/>
		<edge from-layer="177" from-port="1" to-layer="186" to-port="0"/>
		<edge from-layer="0" from-port="0" to-layer="186" to-port="1"/>
		<edge from-layer="180" from-port="1" to-layer="187" to-port="0"/>
		<edge from-layer="185" from-port="1" to-layer="187" to-port="1"/>
		<edge from-layer="186" from-port="2" to-layer="187" to-port="2"/>
		<edge from-layer="175" from-port="1" to-layer="188" to-port="0"/>
		<edge from-layer="188" from-port="1" to-layer="189" to-port="0"/>
		<edge from-layer="175" from-port="1" to-layer="190" to-port="0"/>
		<edge from-layer="190" from-port="3" to-layer="191" to-port="0"/>
		<edge from-layer="191" from-port="1" to-layer="192" to-port="0"/>
		<edge from-layer="192" from-port="3" to-layer="193" to-port="0"/>
		<edge from-layer="193" from-port="1" to-layer="194" to-port="0"/>
		<edge from-layer="189" from-port="3" to-layer="195" to-port="0"/>
		<edge from-layer="194" from-port="3" to-layer="195" to-port="1"/>
		<edge from-layer="195" from-port="2" to-layer="196" to-port="0"/>
		<edge from-layer="196" from-port="1" to-layer="197" to-port="0"/>
		<edge from-layer="197" from-port="3" to-layer="198" to-port="0"/>
		<edge from-layer="198" from-port="1" to-layer="199" to-port="0"/>
		<edge from-layer="199" from-port="3" to-layer="200" to-port="0"/>
		<edge from-layer="200" from-port="1" to-layer="201" to-port="0"/>
		<edge from-layer="196" from-port="1" to-layer="202" to-port="0"/>
		<edge from-layer="201" from-port="3" to-layer="202" to-port="1"/>
		<edge from-layer="202" from-port="2" to-layer="203" to-port="0"/>
		<edge from-layer="203" from-port="1" to-layer="204" to-port="0"/>
		<edge from-layer="204" from-port="3" to-layer="205" to-port="0"/>
		<edge from-layer="205" from-port="1" to-layer="206" to-port="0"/>
		<edge from-layer="206" from-port="3" to-layer="207" to-port="0"/>
		<edge from-layer="207" from-port="1" to-layer="208" to-port="0"/>
		<edge from-layer="203" from-port="1" to-layer="209" to-port="0"/>
		<edge from-layer="208" from-port="3" to-layer="209" to-port="1"/>
		<edge from-layer="209" from-port="2" to-layer="210" to-port="0"/>
		<edge from-layer="210" from-port="1" to-layer="211" to-port="0"/>
		<edge from-layer="211" from-port="3" to-layer="212" to-port="0"/>
		<edge from-layer="212" from-port="1" to-layer="213" to-port="0"/>
		<edge from-layer="213" from-port="3" to-layer="214" to-port="0"/>
		<edge from-layer="214" from-port="1" to-layer="215" to-port="0"/>
		<edge from-layer="210" from-port="1" to-layer="216" to-port="0"/>
		<edge from-layer="215" from-port="3" to-layer="216" to-port="1"/>
		<edge from-layer="216" from-port="2" to-layer="217" to-port="0"/>
		<edge from-layer="217" from-port="1" to-layer="218" to-port="0"/>
		<edge from-layer="218" from-port="3" to-layer="219" to-port="0"/>
		<edge from-layer="219" from-port="1" to-layer="220" to-port="0"/>
		<edge from-layer="220" from-port="3" to-layer="221" to-port="0"/>
		<edge from-layer="221" from-port="1" to-layer="222" to-port="0"/>
		<edge from-layer="217" from-port="1" to-layer="223" to-port="0"/>
		<edge from-layer="222" from-port="3" to-layer="223" to-port="1"/>
		<edge from-layer="223" from-port="2" to-layer="224" to-port="0"/>
		<edge from-layer="224" from-port="1" to-layer="225" to-port="0"/>
		<edge from-layer="225" from-port="3" to-layer="226" to-port="0"/>
		<edge from-layer="226" from-port="1" to-layer="227" to-port="0"/>
		<edge from-layer="227" from-port="3" to-layer="228" to-port="0"/>
		<edge from-layer="228" from-port="1" to-layer="229" to-port="0"/>
		<edge from-layer="224" from-port="1" to-layer="230" to-port="0"/>
		<edge from-layer="229" from-port="3" to-layer="230" to-port="1"/>
		<edge from-layer="230" from-port="2" to-layer="231" to-port="0"/>
		<edge from-layer="231" from-port="1" to-layer="232" to-port="0"/>
		<edge from-layer="232" from-port="3" to-layer="233" to-port="0"/>
		<edge from-layer="233" from-port="1" to-layer="234" to-port="0"/>
		<edge from-layer="234" from-port="3" to-layer="235" to-port="0"/>
		<edge from-layer="235" from-port="1" to-layer="236" to-port="0"/>
		<edge from-layer="231" from-port="1" to-layer="237" to-port="0"/>
		<edge from-layer="236" from-port="3" to-layer="237" to-port="1"/>
		<edge from-layer="237" from-port="2" to-layer="238" to-port="0"/>
		<edge from-layer="238" from-port="1" to-layer="239" to-port="0"/>
		<edge from-layer="239" from-port="3" to-layer="240" to-port="0"/>
		<edge from-layer="240" from-port="1" to-layer="241" to-port="0"/>
		<edge from-layer="241" from-port="3" to-layer="242" to-port="0"/>
		<edge from-layer="242" from-port="1" to-layer="243" to-port="0"/>
		<edge from-layer="238" from-port="1" to-layer="244" to-port="0"/>
		<edge from-layer="243" from-port="3" to-layer="244" to-port="1"/>
		<edge from-layer="244" from-port="2" to-layer="245" to-port="0"/>
		<edge from-layer="245" from-port="1" to-layer="246" to-port="0"/>
		<edge from-layer="246" from-port="3" to-layer="247" to-port="0"/>
		<edge from-layer="247" from-port="1" to-layer="248" to-port="0"/>
		<edge from-layer="248" from-port="3" to-layer="249" to-port="0"/>
		<edge from-layer="249" from-port="1" to-layer="250" to-port="0"/>
		<edge from-layer="245" from-port="1" to-layer="251" to-port="0"/>
		<edge from-layer="250" from-port="3" to-layer="251" to-port="1"/>
		<edge from-layer="251" from-port="2" to-layer="252" to-port="0"/>
		<edge from-layer="252" from-port="1" to-layer="253" to-port="0"/>
		<edge from-layer="253" from-port="3" to-layer="254" to-port="0"/>
		<edge from-layer="254" from-port="1" to-layer="255" to-port="0"/>
		<edge from-layer="255" from-port="3" to-layer="256" to-port="0"/>
		<edge from-layer="256" from-port="1" to-layer="257" to-port="0"/>
		<edge from-layer="252" from-port="1" to-layer="258" to-port="0"/>
		<edge from-layer="257" from-port="3" to-layer="258" to-port="1"/>
		<edge from-layer="258" from-port="2" to-layer="259" to-port="0"/>
		<edge from-layer="259" from-port="1" to-layer="260" to-port="0"/>
		<edge from-layer="260" from-port="3" to-layer="261" to-port="0"/>
		<edge from-layer="261" from-port="1" to-layer="262" to-port="0"/>
		<edge from-layer="262" from-port="3" to-layer="263" to-port="0"/>
		<edge from-layer="263" from-port="1" to-layer="264" to-port="0"/>
		<edge from-layer="259" from-port="1" to-layer="265" to-port="0"/>
		<edge from-layer="264" from-port="3" to-layer="265" to-port="1"/>
		<edge from-layer="265" from-port="2" to-layer="266" to-port="0"/>
		<edge from-layer="266" from-port="1" to-layer="267" to-port="0"/>
		<edge from-layer="267" from-port="3" to-layer="268" to-port="0"/>
		<edge from-layer="268" from-port="1" to-layer="269" to-port="0"/>
		<edge from-layer="269" from-port="3" to-layer="270" to-port="0"/>
		<edge from-layer="270" from-port="1" to-layer="271" to-port="0"/>
		<edge from-layer="266" from-port="1" to-layer="272" to-port="0"/>
		<edge from-layer="271" from-port="3" to-layer="272" to-port="1"/>
		<edge from-layer="272" from-port="2" to-layer="273" to-port="0"/>
		<edge from-layer="273" from-port="1" to-layer="274" to-port="0"/>
		<edge from-layer="274" from-port="3" to-layer="275" to-port="0"/>
		<edge from-layer="275" from-port="1" to-layer="276" to-port="0"/>
		<edge from-layer="273" from-port="1" to-layer="277" to-port="0"/>
		<edge from-layer="277" from-port="3" to-layer="278" to-port="0"/>
		<edge from-layer="278" from-port="1" to-layer="279" to-port="0"/>
		<edge from-layer="279" from-port="1" to-layer="280" to-port="0"/>
		<edge from-layer="280" from-port="1" to-layer="281" to-port="0"/>
		<edge from-layer="273" from-port="1" to-layer="282" to-port="0"/>
		<edge from-layer="0" from-port="0" to-layer="282" to-port="1"/>
		<edge from-layer="276" from-port="1" to-layer="283" to-port="0"/>
		<edge from-layer="281" from-port="1" to-layer="283" to-port="1"/>
		<edge from-layer="282" from-port="2" to-layer="283" to-port="2"/>
	</edges>
</net>
